Ghost_RMSD/checkpoints_full/grn_last.pt (torch, 187461 bytes, 15 tensors)

backbone.0.fc.weight f4 [256, 38]
00000000: 8581 46bd 881a 8abe 8fe2 e33c 01c5 e33d
00000010: 1b98 423e ae25 683c acb7 553e 00a1 fabd
00000020: 2a9e fdbb 3394 91be 3dea 56be e537 d6bd
00000030: f114 29be 99e9 0cbf 309f fd3e 65f0 ea3d
00000040: 76ae c9be 3294 4c3e 3ee6 4dbe a89a 12bf
00000050: 88bc a53e f3df 15be 81c6 0d3e a050 de3e
00000060: 1638 afbe 3082 833e cb5a 0e3f 70b5 eabd
00000070: 8827 183e 357f 12bf bee8 52be 4d21 813f
00000080: cf54 b63d 73db e1be e86b 333c 739c 0a3f
00000090: 5a70 07be 3562 f0bc 28ba 4bbd 3236 f4be
000000a0: 18e0 ee3d b9b3 e73d 621e 423d 93c3 113d
000000b0: 8523 d43d dadd 923d b551 243f 39ef 9fbe
000000c0: 8077 0f3e 6d3d 033f 4daa dfbd fee0 1ebf
000000d0: 017e 2b3f 2726 613d e0ce aa3e 249b 623e
000000e0: fcbf 89be 4bc3 85be 254f c7be 5475 d43e
000000f0: c62f 8a3e 1304 6a3e bbf4 ff3e 0d5a 043f
00000100: 8cca 3ebe ae3b 0abe d413 893f 796e 78bc
00000110: 4554 94be 9c99 533e 6322 f1bb 25b9 ecbe
00000120: a94e 123f 2e22 543e f559 2fbd 8407 04be
00000130: 499f 14be 52f5 2a3d 9a99 a43a 2a4a 8d3a
00000140: e0ce 363e cd8e 083e d9fc a1bc b5f2 f63c
00000150: 5fdb 18bd 438e 7a3c 2db8 303e fd47 b93e
00000160: 592c 9c3e 83d9 633e 551b 48be 244c 673e
00000170: 9745 013f b659 9f3e 7a98 813e 9cab 823c
00000180: a96b 0cbf b164 38bf ae33 0cbe b202 d03e
00000190: cc0c a4be fc48 3cbe 576e 93be 4009 83bf
000001a0: 174c 6b3f 2d26 8a3f a67d 183e 4e11 8f3e
000001b0: 6161 303e 6540 c33e 9838 283f 051f b5be
000001c0: 775a bcbe b3ca 4ebe 4541 8fbc 59e0 db3d
000001d0: 3141 09bd c35b 8a3e fc71 f13d beb3 aa3d
000001e0: bdb6 04be b198 803e f748 3ebf f20b d1be
000001f0: 3434 dfbe 6fc3 86be ba69 143f 3684 76be
00000200: 2d10 433f 087d 71be 1f50 263e 9f48 40be
00000210: 50c0 25bf a07b 5dbe 634f 6a3e b952 4b3c
00000220: bc50 db3d 5b54 16bf dbe9 cb3e c277 ccbe
00000230: 48a8 5b3e 3c5b b2be a338 4e3f ff21 3bbf
00000240: dfd0 b6be d1b0 21be 2e66 0cbd 4d4c f43d
00000250: 9ba6 403e 373d 2ebe 2f6a 1ebe 1e35 30be
00000260: 0173 a1be 04e9 ee3d 0b13 31bd 8a30 12be
00000270: 2d8c d5bd 86f6 adbe c12a ffbc 317b 58bc
00000280: 0df2 75bd 0ed4 d63c 2c0f 99bf 02f3 95be
00000290: 507e 013e a0ad 0f3f e333 4cbe 6a8e acbe
000002a0: 29de 643d a350 9ebe 310e cd3d 7f6f 6f3e
000002b0: 195f 6a3d f00b 1cbd b8aa aebe 15a4 7bbd
000002c0: f26e af3f b9b8 2abe 8559 193e d6d0 ee3e
000002d0: eedd febc 49b6 b6bd 93b8 10bf c93c f5bd
000002e0: a7e9 123f dbc7 c03e 51da 12be 6946 6fbe
000002f0: a7e8 193d e1c6 2abe 82ab 84be b977 903e
00000300: e59d 0ebe 999b 653e 9289 c63d 4bb0 3f3e
00000310: 4284 84bc f88f 283e 8e3d 273d 116b f9be
00000320: e161 92be 02e8 32bd 03e3 7abd 384d b33e
00000330: 621b a3be 646d 4b3f 5f7b 7fbe d6ba 3cbe
00000340: 971e f43d d760 f63b f2ec 833f c1b7 6fbb
00000350: ebd7 303f 3e40 fdbe b95e e0bd 253c 24be
00000360: ca36 ddbc 36f3 613e d500 fabc 3a0f 70bf
00000370: 1dce 093f e077 81be 9abc 21be d84c 13bf
00000380: 5c72 0dbf 589d b63e 8c13 9d3d e9ae 3fbe
00000390: faee cabd 1357 b4be 66f7 c3bd e942 02be
000003a0: 91cf 0c3f 7094 1e3d 35f5 95bd 3ce6 233e
000003b0: a1b6 ad3e 776c fcbd 1b6c 2b3e 957b 323e
000003c0: 1904 e1be a130 0b3f 8080 11be fe50 41bd
000003d0: 0ed6 0d3e f1d7 833c e168 df3e b544 11bf
000003e0: 9c10 34be e692 2c3f 0e9d c33e 7f34 493c
000003f0: e848 96be ffda bdbe ad9e dfbc d092 19be
-0.048463363 -0.26973367 0.027817992 0.1112156 0.19003336 0.01416914 0.20870847 -0.122377396
-0.007739802 -0.2843338 -0.20987792 -0.1045988 -0.16511895 -0.5504394 0.49535513 0.11471633
-0.39390916 0.19978407 -0.20107362 -0.57267237 0.323704 -0.14636211 0.13845254 0.43420887
-0.34222478 0.25685263 0.5560729 -0.11460388 0.1485883 -0.5722535 -0.20596597 1.0088288
0.08902895 -0.4411274 0.01095102 0.5414497 -0.13226452 -0.029343704 -0.04973808 -0.47697598
0.11663836 0.11313576 0.047392257 0.035586905 0.10358337 0.07171221 0.64187175 -0.312372
0.1401043 0.51265603 -0.10921154 -0.6206206 0.6698914 0.054968026 0.33360958 0.22129494
-0.26904285 -0.2612556 -0.3892757 0.41495764 0.26989573 0.22853117 0.49991402 0.51699907
-0.18631953 -0.13499328 1.0709176 -0.0151630575 -0.28970543 0.20664066 -0.0073588355 -0.46235004
0.57151276 0.20716164 -0.0428104 -0.12893492 -0.14513887 0.041737862 0.0012557984 0.0010779549
0.17852354 0.13335724 -0.019773887 0.030145029 -0.037318584 0.015292707 0.17257757 0.36187735
0.30502585 0.22250943 -0.19541676 0.22587639 0.5049681 0.31123132 0.25311643 0.01595097
-0.54851776 -0.7202864 -0.13691589 0.40627056 -0.32041013 -0.18387216 -0.2879512 -1.0237198
0.9191298 1.07929 0.14891681 0.2794289 0.17224647 0.38135067 0.65711355 -0.3537523
-0.3678777 -0.20194511 -0.017487178 0.1073615 -0.033509437 0.27023134 0.11789319 0.08335064
-0.12960334 0.25116494 -0.74330086 -0.40829426 -0.43594515 -0.2632098 0.57973826 -0.24073872
0.7619656 -0.23582852 0.16241501 -0.18777703 -0.6474657 -0.2162919 0.22881846 0.012409859
0.10708758 -0.58722466 0.39826855 -0.39935118 0.21450913 -0.3483523 0.8055517 -0.7309875
-0.3570623 -0.15790106 -0.034277134 0.11928616 0.18813555 -0.17015539 -0.15470193 -0.17207763
-0.31533054 0.11665538 -0.04323105 -0.14276329 -0.10427127 -0.33977145 -0.031148316 -0.013212965
-0.06004529 0.026224162 -1.1957755 -0.29286963 0.1264584 0.56124306 -0.19941668 -0.33702403
0.05587593 -0.30920896 0.100124724 0.23382376 0.0572196 -0.038097322 -0.34114623 -0.061435778
1.3705733 -0.16672029 0.14975555 0.46643704 -0.031111684 -0.08921487 -0.5653164 -0.119744845
0.57387775 0.37652478 -0.14341094 -0.23366703 0.03757539 -0.16677429 -0.259121 0.2821634
-0.1392742 0.22422637 0.09694208 0.18719594 -0.016176347 0.1646117 0.040830187 -0.48714498
-0.285903 -0.04367829 -0.06125165 0.3501985 -0.3185683 0.7946379 -0.24949406 -0.18430647
0.11919897 0.0075188684 1.0306685 -0.0036578032 0.69079465 -0.49463075 -0.10955567 -0.16038568
-0.027003665 0.22065434 -0.030517975 -0.93773234 0.5383013 -0.2528677 -0.15794602 -0.5753913
-0.55252624 0.3566692 0.07669744 -0.18719067 -0.099088624 -0.35222682 -0.09568672 -0.12720837
0.5500422 0.03871578 -0.0732216 0.16005796 0.33928397 -0.123253755 0.16740458 0.17429955
-0.4394844 0.54371077 -0.14209175 -0.04719638 0.13851187 0.01609418 0.43634704 -0.56745464
-0.17584461 0.6741165 0.3820576 0.012280582 -0.29352498 -0.37081143 -0.027297342 -0.14997411

backbone.0.fc.bias f4 [256]
00000000: 3e86 88bb 3615 873b 4df4 54bc beb8 243b
00000010: 3004 e43b 28f0 85bb 663d 49bb 4a9c ab3b
00000020: bdf3 c4bb 634a 593b 2d9b e33a f505 62ba
00000030: 041c f239 1620 1b3b b8cf 27bb 592e e1bb
00000040: 87d5 75bc 8bf9 dd3b f3a8 2abb 2d31 ba3b
00000050: 7bd4 2a3b 2bdc be3c c147 68bb c0b6 2abc
00000060: f867 f8ba 328c 22ba ba78 91ba ca8b 5ebb
00000070: 26f9 923a bd85 acbc 99f0 9bbc 5f32 00bc
00000080: cf31 e4bb 2917 70bb f53d 30ba d46d 95bb
00000090: a83f 9cbb 2073 633b 9c94 5e3d 2329 873b
000000a0: 2d76 c23a af3b 113a fc51 a2b9 d6b1 aa39
000000b0: d984 783b 7095 333a 1278 c1bb 250e 293b
000000c0: ef1d 633a 5847 d8bb 10fd cabc f7ff 24bb
000000d0: 1044 8c39 5d4b 3dbc 72b7 f43a d4ba 35bc
000000e0: f569 11bc 6f26 f73b 6155 ccbc b904 2b3b
000000f0: 161b 1ebb 7daa 1f3a 64af d5bb 3929 46bb
00000100: 77d1 f7ba 30c4 e03b f71d 093b a3cc f73b
00000110: 8388 a1ba 4dc2 16ba 4a24 c63b df46 ceba
00000120: 7425 54ba 1887 94bb a849 a7bb 4cf8 feba
00000130: 9c7a 873b b43a 913a bfaf 7a3b 5073 773b
00000140: 309d 7dbc fa90 e639 de18 8f3c 544a e03a
00000150: b421 903b 25c4 a3b9 a7ba 303b ac2e 4d3c
00000160: 2924 76ba 7498 963b 0568 d8bb 2453 77bb
00000170: 499d 873c eeec 053c 69bf 943c fe2e 6dbc
00000180: 01df 08bd ad8c 493b fa4f 48bb f7fa b63b
00000190: 7b6f 0e3b 8033 7b3c d65f 9f39 4f92 4eba
000001a0: c15a 3a3b 3128 c0b9 71cc 493a 6b27 e23a
000001b0: 32b5 f8ba df7d 1cbc 02f8 6238 d8c0 0d3c
000001c0: 00fa 033b a29e b4ba be03 d1bb 1cc6 dbba
000001d0: 7e2d 1abb 2757 f1bb 87ee dfba 04ae c63b
000001e0: 7af4 0d3d ff05 193b b04c 14bc 46bc 1eba
000001f0: 597b bbbb 3d81 24ba 99bd 103c 6b01 66bc
00000200: 564c 1e3b 2f84 0d3b 320e ca3b 9e60 2ebc
00000210: 82b0 05bb 5fb9 55bd f21b bbbb 5b62 e6bb
00000220: 595c d0ba 43b8 993a 4efc 1b3c 2fda b3bb
00000230: d001 37bb 3c4a cdbb 924d bbbb 89c9 533b
00000240: 55dd 433a b0c3 8dbb 484f 8838 4773 b53c
00000250: fc18 d1ba 2a72 95bc 6802 b5bb 2a78 f2bb
00000260: 6113 f0ba b7d7 53bb e151 08ba ef49 47bb
00000270: 210c b63b 19be 97bb 6923 32bc 6b6a 603b
00000280: 1f7d 043b d2ff 783b 31e9 bb3a 7c29 d8ba
00000290: 1c77 62bb d40c 413b 5799 5bbb 9f91 8f3b
000002a0: 8ba8 843b 1ea6 dc3b f193 483b a252 99bb
000002b0: f7de 5c39 7d81 a0bb df5e c0bb 1228 f5bb
000002c0: 1c20 b2b9 b0f3 97bc e6b6 c0bb 8ea0 a73b
000002d0: 4c46 09ba c6d1 923c 1f3d 173a 8a8e 43ba
000002e0: 6ce6 f0ba c3f3 f2b8 2868 5dbd c7f3 633a
000002f0: 0fbe a63b 9079 ef3c 8ad7 53bb 9119 6b3c
00000300: 7a6c b73b d31e f93c fdff 3f3c 29d0 f73a
00000310: 7420 25bb b5d5 a4b7 2203 82ba b2cf 0d3b
00000320: cbde 5d3b e2ee d6ba d133 65bb 7342 2e3c
00000330: 57ac 103b 6af2 493b cf4e fd3b d3e6 d3ba
00000340: 66f5 33bc 17b6 c43b d3b5 c53b 1b59 95bb
00000350: d840 d7bb 4cc8 98bb 7af8 87bb 66f9 233c
00000360: 92ad 313b 2180 50bc 526e 04bb 6f5e eeba
00000370: eb6e 08bb 6be4 df3b add9 70bb cf25 ee3b
00000380: 3ffd 4ebb 7a03 82bc d58a 40bc 8c73 89ba
00000390: a7f8 3bbb c013 833c c920 98bc 5c3a 773c
000003a0: 539e 543b df36 2ebd 1134 04ba 15a7 9f3c
000003b0: eda2 9c3a fd44 c5bb c9a5 ac3a 2167 20bb
000003c0: f41d 783b 8f16 80b9 efaa 2e39 3322 b1bc
000003d0: c632 bb3a d53c c03a c6fd d03c fd38 09bc
000003e0: 096e b1bb f9c4 dd39 fd86 2d3b 9b51 703a
000003f0: 1a03 103c 2b2e d0bb bbaf feba 1d68 903a
-0.0041663935 0.0041224016 -0.012997699 0.002513453 0.006958507 -0.0040874667 -0.0030706762 0.005237137
-0.006010501 0.003315591 0.0017364972 -0.00086221035 0.0004617871 0.0023670248 -0.0025605988 -0.00687198
-0.015004522 0.0067741326 -0.0026040643 0.0056821317 0.002606659 0.023298344 -0.003544316 -0.010419548
-0.0018951884 -0.00062007003 -0.0011098601 -0.0033957832 0.0011213168 -0.021059865 -0.019035624 -0.007824509
-0.0069639455 -0.0036634898 -0.00067230995 -0.0045602117 -0.0047683306 0.003470607 0.054340944 0.004124777
0.0014836245 0.00055402046 -0.0003096013 0.00032557425 0.003792098 0.0006850576 -0.005904206 0.0025795784
0.0008663823 -0.0066003017 -0.024778873 -0.002517698 0.0002675359 -0.011553613 0.0018670394 -0.011091907
-0.00887536 0.0075424234 -0.024943056 0.0026095344 -0.0024125031 0.00060907734 -0.0065211523 -0.0030236973
-0.001890703 0.006859325 0.0020922401 0.0075622364 -0.0012324009 -0.0005750999 0.0060468065 -0.0015737674
-0.0008092739 -0.004532706 -0.005105216 -0.001945266 0.004134489 0.0011080117 0.0038251725 0.003775794
-0.015479371 0.00043977035 0.017467912 0.0017111995 0.004398549 -0.00031235922 0.0026966722 0.0125233345
-0.00093895436 0.0045958105 -0.006604197 -0.0037738765 0.016554492 0.008174164 0.018157678 -0.014476536
-0.033415798 0.0030754015 -0.0030565248 0.0055841166 0.0021733928 0.015332103 0.00030398247 -0.0007880078
0.0028435441 -0.0003665104 0.00076980056 0.0017254179 -0.0018974899 -0.009551494 5.4113574e-05 0.008651935
0.0020138025 -0.0013780186 -0.00637862 -0.0016767415 -0.002352565 -0.0073651257 -0.0017084636 0.0060632247
0.03465698 0.0023349521 -0.009051487 -0.00060552766 -0.0057214913 -0.00062753615 0.008834266 -0.014038424
0.0024154386 0.002159368 0.006166243 -0.0106431525 -0.0020399396 -0.052178737 -0.0057101185 -0.007030768
-0.0015896662 0.0011727888 0.009520603 -0.005488656 -0.0027924664 -0.006264953 -0.005716034 0.003231617
0.0007471641 -0.0043263063 6.4997526e-05 0.022149695 -0.001595288 -0.018242914 -0.0055239685 -0.0073995786
-0.0018316322 -0.003232462 -0.0005200189 -0.0030409058 0.005555645 -0.0046308157 -0.0108727 0.0034243118
0.002021618 0.0037994278 0.0014336464 -0.0016491855 -0.0034555858 0.002945711 -0.0033508146 0.004381373
0.004048412 0.00673367 0.0030605758 -0.00467904 0.00021063896 -0.0048982487 -0.0058706845 -0.0074815834
-0.0003397473 -0.018548816 -0.005881178 0.005115575 -0.00052366103 0.017922293 0.00057693006 -0.00074598996
-0.0018379218 -0.000115848634 -0.05405441 0.00086956884 0.0050885747 0.02923277 -0.0032324516 0.014349357
0.005597648 0.030410206 0.011718747 0.0018906641 -0.0025196346 -1.9649839e-05 -0.0009919147 0.0021638689
0.0033854719 -0.0016398097 -0.0034973512 0.01063596 0.0022075379 0.0030814656 0.007730342 -0.0016166813
-0.0109838005 0.006003152 0.006033638 -0.0045577413 -0.0065690093 -0.004662549 -0.0041494938 0.010008192
0.0027111513 -0.012725861 -0.0020207358 -0.0018186102 -0.0020818065 0.0068326495 -0.0036750839 0.0072676907
-0.0031584052 -0.015870798 -0.01175185 -0.0010486706 -0.0028682144 0.016000628 -0.01857032 0.015089598
0.0032443001 -0.042532798 -0.0005043159 0.01948885 0.0011950411 -0.006020187 0.0013171966 -0.0024475532
0.003785965 -0.0002443087 0.00016657611 -0.021622753 0.00142821 0.0014666567 0.025511634 -0.0083754035
-0.0054147285 0.0004229916 0.0026478164 0.00091674336 0.008789802 -0.00635316 -0.0019431034 0.0011017356

backbone.0.bn.weight f4 [256]
00000000: 5c59 443f 36dc 4f3f 0291 423f dc34 223f
00000010: 6fe4 293f f47a 143f 7fe3 683f f5dc 413f
00000020: f08e 3d3f 63e9 0b3f 679f 523f cc89 393f
00000030: a030 323f 401b 323f 64f3 443f cf30 2e3f
00000040: d573 653f bd18 4c3f b907 2f3f 5bfc 1a3f
00000050: 181b 573f c5ba 7c3f 46e1 8e3f 2dc7 4f3f
00000060: 3fed 6a3f 1e9a 513f d315 2a3f c6da 3a3f
00000070: 8777 1b3f 53f2 923f 352f 653f e2e4 f53e
00000080: 6e35 343f 4ccb 4b3f 4b9a 263f 7744 373f
00000090: fc33 373f 7647 703f 131a 8d3f 0f65 5c3f
000000a0: ace2 5c3f 9d23 343f 1b5d 153f 3cbc 513f
000000b0: 595d 5c3f 0d84 343f 9f86 623f 2994 273f
000000c0: b9f3 343f 2f09 243f 5cec 743f a0fc 113f
000000d0: 8f1a 443f 2150 483f 0481 393f 6b98 4d3f
000000e0: e2b6 4a3f 54dc 363f 077e 853f 7b98 723f
000000f0: 4130 353f 5b51 3b3f beb5 483f 4643 323f
00000100: 3a26 463f 2813 2d3f 3c1a 303f 4a25 3b3f
00000110: 3305 413f 70ef 4c3f 923f 743f 8d06 363f
00000120: c967 3b3f 57de 293f 6965 283f b1b6 8c3f
00000130: 16a7 413f 7ac8 6e3f eebc 2d3f 90e2 393f
00000140: 947c 4d3f 8c2c 303f 1656 5d3f 7adc 443f
00000150: 7167 603f 272a 473f cede 303f c318 6f3f
00000160: 4c95 273f 972f 3d3f a889 353f dac2 343f
00000170: 0a4a 783f e51d 583f f01d 623f cdd5 a43f
00000180: ba3c a53f 04f5 2d3f e3a6 023f 1f78 313f
00000190: 7c8c 543f 39d0 683f f0b4 463f d292 3a3f
000001a0: 24b1 613f 61ad 383f 4714 373f 9748 693f
000001b0: f921 523f 3651 7d3f f54c 043f e1c6 823f
000001c0: 1911 3a3f 8650 3d3f ca4b 483f f86a 2a3f
000001d0: f731 0b3f 05b8 463f 07fa 5a3f 9333 543f
000001e0: b350 4f3f 0f18 463f afae 463f ba7b 4d3f
000001f0: 5576 873f a055 283f 4b2e 8b3f 4080 4b3f
00000200: ccfb 0e3f 2c19 243f 1400 763f 9e50 4a3f
00000210: 73b9 3a3f b15e 8d3f c777 793f 2362 443f
00000220: 40a8 443f 7e2c 273f ea6c 473f 7b38 063f
00000230: 17f3 523f f108 543f b53d 313f 928c 323f
00000240: 8262 2b3f bf77 513f 0152 133f 1a27 963f
00000250: df7e 4f3f 774f 563f 86a0 433f 337d 413f
00000260: 1355 323f 8613 343f bf97 2e3f 983b 333f
00000270: 1809 2d3f ba15 693f aec8 7d3f 7f48 463f
00000280: c1fa 563f b224 4c3f 2cec 303f c01b 333f
00000290: d271 293f a418 593f 02fb 383f e6e0 653f
000002a0: 41e8 163f 0aab 2d3f 85da 453f 43d1 273f
000002b0: a99e 303f 0263 343f d990 4a3f 9b8d 133f
000002c0: 9623 303f 1a0a 5e3f 08a4 2e3f a8c7 443f
000002d0: 704a 3a3f 6f60 803f eb2d 4d3f 547e 2d3f
000002e0: 0aec 6e3f d1b5 1c3f 9d4d 933f ab9b 063f
000002f0: 3091 443f 640e 9a3f e0e5 263f 07d0 aa3f
00000300: 70d4 293f 6641 7f3f a67c 413f 520b 2f3f
00000310: 072d 1f3f 715c 2c3f a810 303f 401d 783f
00000320: f83d 583f f2f8 303f df85 353f 71d2 5a3f
00000330: 6469 133f 4c7d 4c3f 9372 2c3f b871 3f3f
00000340: 062c 153f a7ae 293f fe4a 3e3f 946f 463f
00000350: 0cea 713f 69eb 143f daa3 553f f425 503f
00000360: 7429 693f 5ce3 353f c3d4 2e3f d7f5 383f
00000370: e1b3 363f 2d87 493f add3 393f d91c 553f
00000380: 9bfd 253f 0aad 5e3f c83f 473f 92eb 433f
00000390: ca5d 483f 102d 583f 9be4 573f 1db2 703f
000003a0: 543d 2f3f 3ca3 a23f a092 4b3f 7c32 a43f
000003b0: cd47 393f 4020 273f 1129 283f 48a7 123f
000003c0: f6e0 6a3f 7c90 733f cbf0 3c3f 6046 863f
000003d0: 4a8b 423f 276f 4c3f 8df3 843f 80f1 613f
000003e0: bc53 5b3f ac87 253f feac 583f e34f 413f
000003f0: 2ab1 4d3f 02ac 1a3f 5e7b 533f 3d32 1e3f
0.7669885 0.8119539 0.76002514 0.63361907 0.66364187 0.5800011 0.9097213 0.7572778
0.7404623 0.54652995 0.8227448 0.72475886 0.69605446 0.6957283 0.76933885 0.68043226
0.8962987 0.7972525 0.6837116 0.60541314 0.84025717 0.9872249 1.1162498 0.81163293
0.9176826 0.8187579 0.6643955 0.7299007 0.6072926 1.1480201 0.8952516 0.48026186
0.7039403 0.7960708 0.6507918 0.71588844 0.71563697 0.9385904 1.1023582 0.86091703
0.86283374 0.7036684 0.5834519 0.8192785 0.8607994 0.70513994 0.88486665 0.6546045
0.7068439 0.64076513 0.95673156 0.570261 0.76603025 0.78247267 0.7246249 0.80310696
0.7918531 0.71429944 1.0429085 0.94763917 0.70776755 0.73171014 0.78402317 0.696339
0.7740208 0.67607355 0.6879003 0.73103774 0.7539856 0.8005285 0.954095 0.71103746
0.7320524 0.6635489 0.6577974 1.0993253 0.7564558 0.9327465 0.6786641 0.7261133
0.80268216 0.68817973 0.8645948 0.7689892 0.8765784 0.77798694 0.6908997 0.9339716
0.65462184 0.7390074 0.7091317 0.7060982 0.96987975 0.84420615 0.8832693 1.2877747
1.2909157 0.6795199 0.510359 0.69323915 0.8302686 0.9094272 0.7761984 0.7288028
0.8816092 0.72139555 0.71515316 0.9112639 0.8208309 0.98952043 0.5167993 1.0216943
0.7268234 0.73950994 0.78240645 0.6656947 0.54373115 0.7762454 0.8553776 0.82891196
0.8098251 0.7738046 0.77610296 0.80266917 1.0582987 0.65755653 1.0873502 0.7949257
0.5585296 0.6410091 0.9609387 0.7902926 0.72939223 1.1044523 0.9744839 0.76712245
0.7681923 0.65302265 0.77900565 0.5242993 0.82402176 0.82826144 0.6923478 0.69745743
0.66947186 0.81823343 0.57547003 1.1730683 0.81052965 0.83715004 0.76416814 0.75581664
0.6966106 0.7034229 0.68200296 0.7001281 0.67592 0.9104878 0.9913434 0.7745437
0.8397637 0.7974349 0.6911037 0.6996422 0.661893 0.84803224 0.7225801 0.8979629
0.5894814 0.6783911 0.7728656 0.65553683 0.68992096 0.70463574 0.7912727 0.5763795
0.688043 0.86734164 0.6821904 0.7686715 0.7276983 1.0029429 0.8014819 0.67770886
0.9332892 0.6121493 1.1508061 0.5258128 0.7678404 1.2035642 0.6519451 1.3344735
0.6633978 0.99709165 0.75580823 0.6837665 0.6217808 0.67328554 0.68775415 0.9691963
0.84469557 0.6912986 0.70907396 0.8547736 0.5758269 0.7987869 0.67362326 0.74782896
0.582703 0.66282123 0.7433318 0.77514005 0.9449775 0.5817171 0.8345314 0.8130791
0.9107888 0.7105005 0.682934 0.7225012 0.71368223 0.78721887 0.72588617 0.83247143
0.64840096 0.86982787 0.778317 0.76531327 0.7826811 0.8444376 0.843332 0.9402178
0.68452954 1.2706065 0.79520607 1.2827907 0.72375184 0.65283585 0.6568766 0.572865
0.91749513 0.9514234 0.7380492 1.0490227 0.7599379 0.79857105 1.0386826 0.88259125
0.85674644 0.64660144 0.84638965 0.7551252 0.80348456 0.60418713 0.8261012 0.6179541

backbone.0.bn.bias f4 [256]
00000000: a430 e6be 940b 39bf 5ee2 a4be cf2d 8abe
00000010: 55b7 46bf a5cd 35be 557a eabe 0005 f8be
00000020: ac7f cbbe 9ab4 b7be 3ab7 a4be d732 02bf
00000030: 031e d2be 17bd 06bf 4e26 05bf b0b9 27bf
00000040: 680f cbbe 0b36 14bf d132 f1be 0cab 39be
00000050: 85e4 13bf 5b7f 07bf 4fd2 21bf 6c30 f8be
00000060: 3243 06bf 9612 1cbf 54cf ebbe 5714 ecbe
00000070: bfb4 05bf 18ea dbbe 7ecf 9abe 0f66 67be
00000080: b08a bcbe bf69 0cbf e052 fdbe a6b5 00bf
00000090: 3628 9bbe 52d9 24bf 7c8c 05bf e1ab 0dbf
000000a0: 31d5 f4be 5484 bfbe dc6a f2be ad0f 1dbf
000000b0: 9d90 2cbf 0c0c b7be ea4d b1be f26a ddbe
000000c0: 88e5 00bf d192 76be b1e3 36bf 90d7 c1be
000000d0: 9634 26bf cc6d 18bf 49df dfbe 1b49 00bf
000000e0: bab4 33bf 77fa 70be 1c8e 27bf 7fd4 dfbe
000000f0: 1910 e9be dd11 ddbe 69c7 55bf 1526 d3be
00000100: 751d 2abf 4f5a a0be 38e4 07bf 5b29 f8be
00000110: 6676 34bf 79a8 02bf 08a5 0bbf 10bf 1abf
00000120: 9f2a c1be f4e6 ccbe 0811 f3be 01f7 0abf
00000130: 8dc0 00bf 4f1c 42bf 7182 ffbe 7d70 ffbe
00000140: 0c44 31bf be9a d4be 849a 32bf db09 38bf
00000150: c72f b5be f0f2 e8be 4929 edbe 2a11 5ebf
00000160: 226e 15bf 1096 b2be 3d0b 96be 130c cfbe
00000170: dfea 04bf 4060 01bf 23b8 29bf 540c 80bf
00000180: d35b 96be ead1 e6be be50 5cbe 8444 bdbe
00000190: 5aad 2fbf 3cfb c6be f124 9fbe 67dc dabe
000001a0: 648c 29bf 42cd c5be 42c4 ffbe 2718 0cbf
000001b0: b4d5 ebbe 7634 0bbf d763 d7be 97d8 43bf
000001c0: 7c1b adbe ea4e fabe 670a 1cbf 8a2c 61be
000001d0: fbe5 aebe 365b 13bf d4ad f5be ef60 20bf
000001e0: 9b8d 29bf b721 c4be 314e 20bf 9e15 08bf
000001f0: 374d fbbe 56f8 cfbe a4a3 0abf ce78 a5be
00000200: 3fae f4be a78b e2be a3a5 4fbf 5aac efbe
00000210: ac65 0fbf 6819 21bf c3af c6be 48bf 22bf
00000220: 3693 36bf 847e 27bf 0b1d d3be a91b f3bd
00000230: bb4d b1be af3f 58bf d255 02bf 1221 0bbf
00000240: 33db eabe c9ed 2cbf d456 95be 14ea 2bbf
00000250: 5a79 89be 6956 28bf 1662 f3be 07ce bdbe
00000260: f8ec b8be ae46 7fbe ece0 09bf 22e1 87be
00000270: aa5f bcbe 9c60 e4be eb9c fdbe dd28 fabe
00000280: 0950 46bf c4a6 d1be 44d9 05bf 7c26 25bf
00000290: e142 d9be 1099 08bf cb10 10bf 454b 40bf
000002a0: 1a2f aebe 1f63 83be b614 dfbe eaea f7be
000002b0: bd96 20bf 0838 0bbf dff5 efbe 3f31 87be
000002c0: 02c1 ecbe 3e4a 12bf aaad c4be 004b 1ebf
000002d0: d998 0bbf c393 3bbf db05 cbbe e1aa 15bf
000002e0: 50f1 44bf 4060 e0be 5777 76bf 429c a1be
000002f0: fcb0 0abf d4af 29bf bb95 debe 46f6 46bf
00000300: 1c8a 99be 6f78 18bf 4e41 c4be 8e6b e6be
00000310: f4dc a2be 71d6 f5bd 5539 0bbf 0b76 f3be
00000320: 3217 dcbe b23b c1be 933e d8be ec3b d6be
00000330: 7f27 a4be 56d0 aebe 8849 bbbe f1ec 1bbf
00000340: 9fee babe 6a2e f8be 035b dabe 6a80 ffbe
00000350: 52aa e5be f252 2abe 071d 9cbe 6ff2 35bf
00000360: 66db 0dbf a48c 0abf 914c 00bf 9b50 b5be
00000370: d83d 14bf 85b8 fbbe ed33 e2be d28f cabe
00000380: 54b7 adbe 4284 1dbf 2282 d2be 3f26 10bf
00000390: 6e97 b8be 593d bfbe b9cb fdbe 5ddd 6ebf
000003a0: e385 1ebf 9d20 1ebf f340 e0be 789f 59bf
000003b0: 053b 42bf 1851 8fbe 28df c3be 1109 bbbe
000003c0: 01d4 e2be 7087 40bf 3b85 1ebf c860 21bf
000003d0: 5422 17bf 5e31 4cbf a3c9 3abf 0b57 1dbf
000003e0: 7aea fbbe 4d95 ecbe f6d3 39bf c5f0 17bf
000003f0: ed61 18bf c7eb aebe 3b82 93be e771 7abe
-0.44958985 -0.7228329 -0.32203954 -0.26988074 -0.7762349 -0.17754228 -0.45796457 -0.48441315
-0.39745843 -0.35879976 -0.3217104 -0.50858825 -0.41038522 -0.5263228 -0.52011573 -0.6551771
-0.39660192 -0.57894963 -0.47109082 -0.18131655 -0.5777057 -0.52928704 -0.6321153 -0.48474443
-0.5244628 -0.6096586 -0.46056616 -0.46109268 -0.5222892 -0.42952037 -0.3023643 -0.22597526
-0.3682456 -0.54848856 -0.4947729 -0.50277174 -0.30304116 -0.64394104 -0.5216749 -0.5534039
-0.47818902 -0.37405646 -0.47347152 -0.61352044 -0.6740816 -0.3575138 -0.34629756 -0.43245655
-0.50350237 -0.24079444 -0.7144118 -0.37859774 -0.6492399 -0.59542537 -0.4372504 -0.5011155
-0.7019764 -0.23533045 -0.65451217 -0.4371681 -0.45520094 -0.4317769 -0.835074 -0.41239992
-0.664512 -0.313189 -0.5308261 -0.48469052 -0.7049316 -0.5103832 -0.5454869 -0.6044779
-0.3772783 -0.40019953 -0.4747393 -0.5428315 -0.5029381 -0.75824445 -0.49904206 -0.4989051
-0.69244456 -0.4152431 -0.6976702 -0.7189004 -0.35388014 -0.45497847 -0.4632056 -0.8674494
-0.58371174 -0.34880114 -0.2930545 -0.404389 -0.51920885 -0.5053749 -0.66296595 -1.0003762
-0.2936693 -0.45082027 -0.21515176 -0.36966336 -0.6862389 -0.38863552 -0.31082872 -0.4274628
-0.66229844 -0.38633162 -0.4995442 -0.54724354 -0.4606148 -0.54376924 -0.4206836 -0.76502365
-0.3381003 -0.48888332 -0.6095337 -0.21989647 -0.34159836 -0.5756105 -0.47984183 -0.6264791
-0.662317 -0.38306972 -0.6261931 -0.53157985 -0.49082348 -0.40619153 -0.54155946 -0.3231873
-0.4778919 -0.4424717 -0.81112117 -0.4681118 -0.56014514 -0.6292939 -0.3880597 -0.6357312
-0.71318376 -0.6542742 -0.41233096 -0.1187051 -0.34629616 -0.84472173 -0.509122 -0.54347336
-0.4587036 -0.6755033 -0.29167807 -0.6715405 -0.26850396 -0.6575685 -0.4753577 -0.3707125
-0.36118293 -0.24929306 -0.5385883 -0.2653895 -0.36791736 -0.44604957 -0.4953378 -0.488593
-0.77465874 -0.40947545 -0.52284646 -0.6451185 -0.42433837 -0.53358555 -0.56275624 -0.7511485
-0.3402031 -0.2566156 -0.4357049 -0.48421413 -0.6273001 -0.5438237 -0.46867272 -0.2640476
-0.46241003 -0.57144535 -0.38413745 -0.6183319 -0.545301 -0.7327234 -0.39652905 -0.58463866
-0.76930714 -0.43823433 -0.9627585 -0.31564528 -0.54176307 -0.6628392 -0.4347361 -0.77719533
-0.29988182 -0.5955877 -0.38331074 -0.45003933 -0.318092 -0.12003792 -0.54384357 -0.47550997
-0.42986447 -0.37740856 -0.4223524 -0.41842592 -0.32061383 -0.34143323 -0.36579537 -0.6090842
-0.36510178 -0.4847291 -0.4264756 -0.4990266 -0.44856507 -0.16633204 -0.30490896 -0.7107305
-0.554129 -0.5412085 -0.5011683 -0.3541306 -0.57906866 -0.49164215 -0.4418024 -0.3956285
-0.3392893 -0.61529934 -0.41114908 -0.5630836 -0.36053032 -0.37351492 -0.4956949 -0.93306524
-0.61923045 -0.61768514 -0.43799552 -0.85008955 -0.75871307 -0.27991557 -0.38256192 -0.36530355
-0.4430237 -0.7520666 -0.61922044 -0.630383 -0.59036756 -0.7976283 -0.72963923 -0.6146094
-0.4920233 -0.46207657 -0.7258905 -0.5935176 -0.5952442 -0.3416426 -0.28810295 -0.24457513

backbone.0.bn.running_mean f4 [256]
00000000: ed37 963d 691d a7bc bd76 473e e441 94be
00000010: e496 80be 07d8 123e 5baa 1ebe d025 6e3e
00000020: 637a 91bc 6b57 413d f846 ef3e 5695 933e
00000030: f7ee 983d b17d 84bd 33fb aa3d b6ae 8d3e
00000040: 8725 c63d 3f5b 83bd 5c07 22bd 9b1a bfbd
00000050: 0087 8ebd c2d8 e0bd efee 89be 0e78 c0bd
00000060: cd57 9d3d 8d15 09be b9d6 00bd 7821 2ebe
00000070: 9ebc 8b3e 5fec 31be 0bc0 16be 0378 39be
00000080: 834e 31bc 1366 28be f05b ae3c 9982 0fbe
00000090: b239 4bbc 5872 4f3d 5b3c 50be 4277 7a3d
000000a0: 5218 c53e 9a6c 5fbd 3bf2 63be eb55 c3bc
000000b0: f72d d7bd 4886 c53d 06ec 96be 669b c83d
000000c0: 2e6e 9e3c 243d 40be 9158 153e ba8e 283e
000000d0: 4f5f 88bd c114 0d3e a7b9 7ebe df4d 823e
000000e0: 9383 613d be95 eebd 1567 263e 2486 323e
000000f0: 3d7b c03c 7ef5 c53e 365d 0a3e bd43 b7bc
00000100: 14fc c5bc c767 403e e071 63be 57dd 29bd
00000110: 8bed 2d3e 551c 43be c71e 5d3e f914 6ebd
00000120: 7c85 453d dd42 9cbc d3a4 4e3d 895a 62be
00000130: 881a e63d 74f7 b53d 1b84 89be 1cd6 59be
00000140: a4f2 47be 6874 b4bd 555c 313b ec0f 01be
00000150: 547a e2bd b818 043e debc a2bd c6ef 98bd
00000160: 2a5d 2dbe 8ea4 853d 9b87 033e faa6 533e
00000170: c954 47bd a023 29bc 588d 853e 1716 6fbe
00000180: 81c6 b63d 9bf9 1ebe 614c 2d3d 9f2c 05bd
00000190: c00d b7bd c371 3b3e 41e0 a1be 2381 3ebd
000001a0: f3f6 f9be e2f6 8ebd 57c1 98bd 9160 c93d
000001b0: 9e28 02be 0ca5 093d 2005 49be 4091 27be
000001c0: 2c96 94bd 4891 8fbe 7977 21be a279 94be
000001d0: 2d0c 22be bc57 2fba 1c79 5fbe 77a2 58bb
000001e0: 77bf be3d 4855 783c 7a9b 843d a654 ba3b
000001f0: 38e3 a7bc 3d69 9cbd 2b27 84be 4e8a 62bd
00000200: aefa 6fbd 5181 8cbd 5ca2 613e 6039 8ebd
00000210: bb8f 56bd 7fa5 823e 2059 863d cb10 093e
00000220: fdea 04be 0217 153d 196a 2e3e 4d89 26be
00000230: 30f3 14be ff90 353e 319a 3abe 9043 fabc
00000240: 964f ce3c 7f12 583d 8352 86be 4fdf bcbe
00000250: 6c05 dabd 8cf0 ad3d 1ab3 d3bd 25d2 d23d
00000260: 956c 213e 9d3d 3b3e 607f 943e 93da cb3d
00000270: c2d2 2c3d d6d3 81be 9a87 3cbe e335 913e
00000280: 35d5 89be e046 5cbd 8529 7a3d f160 853d
00000290: 1741 4f3e e32f 763e 4f4f 323e f045 93be
000002a0: a772 6abd 808b a1bc b5d2 2b3d b06e 00be
000002b0: 145b a43d e8fc b33d 1704 b23e f2c6 a63d
000002c0: 6474 94be 2fcd 173d 7b11 4f3e 5ec6 f5bd
000002d0: 649f 0c3c 2d65 193e b487 c3bd 14d2 8abd
000002e0: 0a90 96bd 1bf7 a2be bb90 babe c8a5 9cbc
000002f0: cddf 52be 2363 263d 6c7a f23d 958f 0fbe
00000300: d641 aebe aa82 21bd 5086 103e 7c3c e13c
00000310: 29c8 babd 92bb 8fbc f9c5 f8bd ecc7 bc3d
00000320: 114b 9fbe b995 f63d 3d69 05be 12e6 083e
00000330: 2ce0 043e 691b 9e3d e065 0c3b ed96 b23d
00000340: 7b07 b6bd 2f5c 833c 02f9 8a3d 25e4 9e3d
00000350: df71 6c3c 4d4d 5c39 e216 48be 3091 0cbe
00000360: 614c 603e 5304 64bd e070 383e 437e 573d
00000370: ab16 1d3e 3b41 13bd 3227 69bc 227f 23be
00000380: 3584 12be df6d 21bc cd05 62bd 318b 933d
00000390: 3f79 713c dead 003e 1786 183e f25d 2f3d
000003a0: 8c96 873e c4d7 e7bd db04 8abd 9da9 e03d
000003b0: 09d3 b2bc af5b 553e b331 573e bd0b 073e
000003c0: 9473 cd3c c12d 5d3d 0592 1fbd 6604 0a3e
000003d0: 8dfc d53c e1eb 8bbe 15ba bdbd 6c33 5abd
000003e0: 2462 2fbd f9bf d63d 9eae 51ba 3d16 49be
000003f0: 77f0 553e e9cf 7d3c b756 2d3c 8626 493d
0.07334886 -0.020399766 0.19478889 -0.2895652 -0.2511512 0.1434022 -0.15494673 0.23256612
-0.017758554 0.04720251 0.46733832 0.28824872 0.07467454 -0.06469286 0.08348694 0.27672356
0.096751265 -0.06413888 -0.0395578 -0.093312465 -0.06959343 -0.10978843 -0.26940104 -0.093978986
0.07682762 -0.13387127 -0.031454775 -0.17004955 0.2729234 -0.17375325 -0.14721696 -0.18112187
-0.010821941 -0.16445188 0.021284074 -0.14014663 -0.012403892 0.050646156 -0.20335524 0.06114889
0.38495117 -0.05454693 -0.22260372 -0.02384468 -0.10506814 0.09644753 -0.29476947 0.09795265
0.019339647 -0.18773323 0.14584567 0.16460696 -0.06658804 0.13777448 -0.24875508 0.25450036
0.05505712 -0.11649655 0.1625026 0.17433983 0.023496265 0.38663858 0.1351212 -0.022371167
-0.024168052 0.18789588 -0.22211409 -0.04147085 0.16985147 -0.19053777 0.21593772 -0.05812547
0.048223004 -0.019074852 0.050450157 -0.22104849 0.11235529 0.088850886 -0.268586 -0.21273082
-0.19526154 -0.08811265 0.002706309 -0.1260373 -0.110584885 0.12900054 -0.0794618 -0.07467608
-0.1693007 0.06525527 0.12844698 0.20669165 -0.04866484 -0.010323435 0.260844 -0.2334827
0.0892458 -0.15524904 0.04230917 -0.032513257 -0.089381695 0.18305115 -0.31616405 -0.046509873
-0.4882122 -0.06980683 -0.07458752 0.09832872 -0.12710807 0.033604667 -0.19630861 -0.16364002
-0.072552055 -0.28040528 -0.15768231 -0.28999048 -0.15824957 -0.00066887937 -0.21823543 -0.003305582
0.09313863 0.015157051 0.06474967 0.0056863604 -0.020494089 -0.0763726 -0.25811133 -0.05530768
-0.058588676 -0.06860603 0.22034591 -0.06944537 -0.052383166 0.25516888 0.06559968 0.13385312
-0.12980266 0.036398895 0.1703266 -0.16263314 -0.14545894 0.17731093 -0.18222882 -0.030549794
0.025184434 0.052752014 -0.26234826 -0.3688912 -0.106455654 0.08493146 -0.10336895 0.10293988
0.15764077 0.18285222 0.2900343 0.09953799 0.04219318 -0.2535693 -0.18411103 0.28361425
-0.26920477 -0.05377853 0.061074752 0.06512631 0.20239674 0.24041705 0.17413066 -0.28764296
-0.057238247 -0.01971984 0.041948993 -0.12542224 0.08025184 0.087884724 0.34768745 0.081434146
-0.2899505 0.037060913 0.20221512 -0.12000726 0.008582924 0.14980002 -0.09547368 -0.067783505
-0.07351692 -0.31829152 -0.36438546 -0.01912202 -0.20593186 0.040621888 0.11839756 -0.14019616
-0.34034604 -0.03943125 0.14113736 0.027494662 -0.09120209 -0.017545495 -0.12147135 0.092178196
-0.3111196 0.12040276 -0.13028426 0.13369015 0.1297614 0.07720072 0.0021423027 0.08720193
-0.088881455 0.016035168 0.06785776 0.07758359 0.014431446 0.00021009632 -0.19539979 -0.1372726
0.21904136 -0.055668186 0.18011808 0.052610647 0.15340678 -0.03595088 -0.014230536 -0.15966466
-0.14308245 -0.0098528555 -0.055181313 0.07204283 0.01473838 0.12566325 0.14894901 0.042814203
0.26482046 -0.11320451 -0.06739207 0.10969851 -0.021829145 0.20835756 0.21015052 0.13188072
0.025079526 0.053998712 -0.038957614 0.1347824 0.026121402 -0.273284 -0.09264008 -0.053271696
-0.042818204 0.10485835 -0.0007998737 -0.1963739 0.20892511 0.015491464 0.010579756 0.049109004

backbone.0.bn.running_var f4 [256]
00000000: 36c6 8b3e dc25 003e 281f f03d 1bda 463f
00000010: 9da9 583e d029 863e 4668 a03e 1c24 453e
00000020: 3677 913d 7e3a bb3e f3bc 133f 65c3 673e
00000030: 5e4c 2f3f 8297 4c3e d6e4 043f 478f 193e
00000040: 3f2a 8f3e a1b9 183e 837d b53f 0b1e d53e
00000050: 328a 293e 5f98 c63d ebeb 893d f2d5 153e
00000060: ba33 e93d ed0f 413e 7439 d73d 14c8 9c3f
00000070: 04aa b93e 115b 563d eab0 f93d 8009 8e3e
00000080: 5647 013f 636e 1f3e b5b9 653e fed5 e33e
00000090: 71b4 753e 4998 333e b70b 253d b6cf 253f
000000a0: edde d03d c5ec 9f3e b382 683e 9350 b53e
000000b0: 4ef5 973d 3efa e83e ccc7 bf3f 33e5 b23e
000000c0: 59fd 893e a16f 203f 19f9 973d dedc 2d3e
000000d0: 43a4 cb3e 2e42 5a3d 7481 5b3e f502 6b3e
000000e0: 7c5a 8a3e bdb1 9a3e f2a7 c73d 4aca 6e3f
000000f0: aad5 8c3e f66b 1f3e 089f 8c3e 4272 383e
00000100: 495c 643e d138 1a3e 871b 5b3e 273e 8c3d
00000110: d3b0 f23e 0fc5 ff3e c30d 173d fbfe 753e
00000120: ac65 593e 24e2 ff3e 1293 6b3e ea0e 5c3d
00000130: 0dca 813e 3cf2 df3e 6d31 363e d294 0b3f
00000140: 364e 3e3e 4687 193f 9a1b 733d fab9 633e
00000150: bd5f 093f 62f6 b73e 6a9f 713e af63 bb3c
00000160: c21a 563f 3121 6c3e b60b 283e 8815 493e
00000170: a586 9b3d 9cc8 1f3e 8cd2 a13d f772 313d
00000180: eea3 383d 00b3 093e 82d8 173f 9910 093e
00000190: a168 b73e 0171 4f3d 4cfe 8d3f 6fb9 503f
000001a0: 0df3 f43d 9e39 163f fccb 923e d138 4b3f
000001b0: 7236 803e 8d3f b23e b8f2 e93e 9c05 333d
000001c0: 0848 603f f0cd 6e3e b946 8c3e be42 b73e
000001d0: 1c8b b83e 9131 bc3e a118 9b3d 00d9 283e
000001e0: 930b d43d 84f7 773f 5fc5 203e 8c4e 223e
000001f0: 8924 6f3d 20e1 bc3e c30b 843f d517 353e
00000200: 2553 523e 5071 1a3e 818c 2e3e 9616 0f3e
00000210: a762 cf3e 01e2 913d dd32 e43f d048 a43e
00000220: af17 d03e 3ad1 2c3e fd46 4d3e dc3f 253f
00000230: 5b6e 413e e529 403d 8d49 dc3d 3da8 873f
00000240: 8fce 823e 7abd d13d 4dd3 463f 4243 ad3d
00000250: 4d6a 323e 7f47 a23d 14b9 fa3e 9761 e93e
00000260: ebf4 f23d 5338 933e bcd1 613f ef9f 953e
00000270: 2cd1 583e 226a dd3e 91c9 ea3d e60d f53e
00000280: a1fc 6c3f d9ae 353f a0e7 bf3e c4e1 c03d
00000290: 1cb5 8c3e 8030 973d b79c 933d 0358 323e
000002a0: 67c5 9a3e d770 123f 6af7 8f3e 3909 f73e
000002b0: 2ead 573d 48e0 e13e 4775 1d3f 4e2d 0d3e
000002c0: b756 b53e 0858 0f3e 1fd3 ac3d b179 903e
000002d0: ca2c 923e 4b7f ce3d 1b6b 3e3d 9deb 413e
000002e0: 1e28 b63d fe0c 383f 88f8 dd3d 1afb 723e
000002f0: ea88 873f cc1d ea3d 2bde 193e dde1 393d
00000300: 1042 943e 4583 8c3d 4fb6 1e3e 6c06 cb3e
00000310: 9869 773d f518 343f e6af 0f3e f0e9 223f
00000320: ea70 b93e 1783 6c3e a060 853f 2ad8 043e
00000330: 8c30 a63e 453d a23e a2da 433e 308e 253e
00000340: 3a8f 1f3e 6501 213f 9e07 f23e b883 dc3e
00000350: 54c5 5c3f 67f4 363e 6f93 a43e 0df3 883d
00000360: 6fd4 8e3f 3c97 de3d ff1a bf3e 8917 463f
00000370: 9e0b 4d3f c6ba c13d 3c80 cc3e aa8e a03d
00000380: 66ea 523e 68b0 433e abe8 f13d 067e 643f
00000390: e3a7 f13e 9fa5 de3d 7ef7 8c3d 8c00 5b3d
000003a0: b693 ef3e 88ef 2c3d 96ae b53e 7c41 b73c
000003b0: e7fb 3b3e f009 f73e 1cbf 2e3f b18a 903f
000003c0: 9313 ff3d b2c3 7c3e 8bbc 073e c26e 9e3d
000003d0: 2759 113f 6231 593f ed0d 663e 8fa4 c23e
000003e0: 1b97 b73e c117 a73e 79e1 013e 0d79 0f3e
000003f0: bbe1 993d 48f6 a73e 615d f73d 8553 003f
0.2729966 0.12514442 0.117246926 0.7767655 0.21158452 0.26203775 0.31329554 0.19252056
0.07102816 0.36568063 0.5771019 0.22633131 0.684759 0.1997967 0.51911676 0.14996062
0.2796192 0.14914562 1.4178928 0.41624483 0.16556624 0.09697031 0.06734451 0.14632395
0.11386819 0.18853731 0.10509005 1.2248559 0.36262524 0.05233294 0.12191947 0.27741623
0.50499475 0.15569453 0.22434123 0.444992 0.23994614 0.17538561 0.040294375 0.64770067
0.1019877 0.31235328 0.22706108 0.35413036 0.07419835 0.4550342 1.4982848 0.3494049
0.269511 0.6267033 0.074205585 0.16978785 0.3977376 0.05328577 0.21436101 0.22950347
0.2702216 0.3021373 0.0974883 0.9327742 0.27506763 0.15568528 0.2746508 0.18012336
0.22300829 0.15060736 0.2139722 0.06847792 0.4740053 0.4995503 0.03687836 0.24023049
0.21230191 0.4997722 0.23005322 0.05372516 0.25349465 0.43739498 0.17792292 0.54523957
0.18584523 0.59972036 0.059352495 0.22238913 0.5366171 0.35930163 0.23595968 0.022874681
0.8363458 0.23059537 0.16410717 0.1963712 0.07594041 0.1560387 0.07901487 0.04332253
0.04507821 0.1344719 0.5931474 0.13385238 0.35822013 0.05064488 1.109323 0.8153295
0.11960421 0.58681667 0.28671253 0.7938357 0.25041538 0.3481411 0.45692992 0.04370652
0.8760991 0.23320746 0.27397707 0.35793108 0.36043632 0.36756566 0.07573057 0.16489029
0.1035377 0.96862054 0.15700291 0.15850276 0.058384452 0.36890507 1.0316089 0.17684872
0.2053953 0.15082288 0.17045785 0.1397346 0.40504953 0.07123185 1.7828022 0.32086802
0.4064307 0.16876689 0.20046611 0.64550567 0.18889754 0.046914954 0.10756216 1.0598217
0.25548217 0.10241218 0.7766617 0.08460094 0.17423363 0.07923793 0.48969328 0.45582268
0.11863121 0.2875391 0.88210654 0.29223582 0.21173543 0.43245035 0.11464227 0.47862166
0.9257298 0.7096992 0.37481403 0.094180614 0.27481925 0.073822975 0.07207625 0.17416386
0.3022873 0.5720343 0.2811845 0.48249224 0.05265539 0.44116426 0.61507076 0.13786814
0.3541772 0.13998425 0.08438706 0.28217843 0.28549796 0.10082873 0.046488862 0.18937536
0.088943705 0.71894825 0.10838419 0.237286 1.0588658 0.114314646 0.15026157 0.045381416
0.28956652 0.06860975 0.15499233 0.39653337 0.060403436 0.7035058 0.14031944 0.6363821
0.3621896 0.23096882 1.0420113 0.12973085 0.32458913 0.3168737 0.1912637 0.16167521
0.1558198 0.6289275 0.47271436 0.43069243 0.862386 0.1786667 0.32143733 0.06686983
1.115858 0.108686894 0.37325284 0.7737966 0.8009585 0.09459452 0.39941585 0.07839711
0.20597228 0.19110262 0.11811956 0.89254797 0.471984 0.108714335 0.06883143 0.05346732
0.46792382 0.042220622 0.3548476 0.022370093 0.18357812 0.4824977 0.6826036 1.1292325
0.12454905 0.24684027 0.13255517 0.07735969 0.5677666 0.8484098 0.2246625 0.38016173
0.35857472 0.3263531 0.12683667 0.14011021 0.07513758 0.32805085 0.120783575 0.5012744

backbone.1.fc.weight f4 [128, 256]
00000000: 9259 21bd 0016 1abd 60f8 3abe ff4d b7bd
00000010: 9d5b 1ebd c430 2bbc 374a babe be99 023d
00000020: 1112 813d 9388 bfbe 3ba8 883c d7c7 92bd
00000030: e1e1 db3d 326a 96bd e84e 9fbe f4eb afbd
00000040: 9a8f 0fbe 4b53 12be 1de6 abbe 38df 13bf
00000050: 671d b4be 306a b93a 4203 c83e 7076 2e3e
00000060: 00df 6d3c 5eff 88bd 5858 6d3c db92 d83c
00000070: 1ea5 19bd ff9d 0e3e 2eef 3d3e 57e1 66bc
00000080: 6e71 c3be 6b68 693d ad11 10be 325c 4dbe
00000090: 153f 03bc 9a61 9bbd 01e7 583e 60c8 21bd
000000a0: 0660 963d d774 733b cc54 81be 3a71 29be
000000b0: b392 963c 8671 64be c5c7 933c 9397 8abe
000000c0: c944 2bbd 81b5 d2bd 1000 9e3c 4916 c2bd
000000d0: d9d5 833d e69c 6f3d af3f de3d f2a9 f2bd
000000e0: 091b d5bd b64d 243e 2e6e 0a3e 96ca 593e
000000f0: c8c9 663c e4ee 7a3d 7e1d 1e3d d0eb 1bbd
00000100: 4725 93bc 0877 993d aa67 133d 6b57 333d
00000110: 991b c7bb edfa 243e 6ab0 35be f058 e83d
00000120: 3392 483d 5ea3 06be 3374 433d dc48 f83d
00000130: bf81 d73c 7840 573e d63c f3bd b557 073d
00000140: 6341 abbe 8be0 69be 1201 653e 5dc9 58bd
00000150: 33fa 2cbe 6aff 39bb f736 603d a6d1 11be
00000160: 8972 acbc 5fd3 4f3d 6c27 4dbd 2bb5 9cbd
00000170: 149f a1bd b7d5 80be 7309 643e 7b78 b43d
00000180: a840 903c ff0d c1be 29a0 35be 17d0 39be
00000190: 6170 0ebe b846 973d 2cb6 8f3a 5500 613c
000001a0: 1e6a 3abe 29e1 8bbc 7a0a e4bd 0d16 60bd
000001b0: 930c a4bd 2a3c 0dbe af0a 40bd cd1c ad3d
000001c0: 178d 263d 060e e5bd 1b8d c63d d49a 9e3b
000001d0: 2e05 e7be a6ef 353d 54e1 93bd f343 aabd
000001e0: 6595 a43d 512c ef3c d206 29bf f5dc 743d
000001f0: c0bd 3ebe 57ae 2dbe cd8c e83d 68eb 9e3d
00000200: e5b3 4fbd fa15 9c3d b7b6 af3d b9fd 453d
00000210: 6c8d 243d 427b 813e 0855 613e 11f8 3d3d
00000220: dcbf 37be 8272 32bd cb49 e0be ff88 303d
00000230: e5a2 20be 15f2 d3bc d95c 8a3d dd0f 8d37
00000240: 3db2 a5be 2b0a 2dbe 423c debc a769 b93d
00000250: 33f2 ab3c e54d 173e 7ae1 803d 809d b8bc
00000260: 32e3 e3bc 44b7 81bc fcaf 42bd 3045 c5be
00000270: b332 093d 48e3 123e b81f c9bd caf1 b13c
00000280: 1b30 2c3d 547c c13c 3ddc 4ebe e795 253e
00000290: 90d5 003c 9eed 8a3d 5e32 a73c 8aad 60be
000002a0: 7984 c3bd b555 98bc 1e09 76be 30d2 aa3d
000002b0: 8054 e03c c72a de3c 1c9a 4b3d 922c 05bd
000002c0: 8968 b3bd d285 f5bc 6746 b63d 2107 c0bc
000002d0: b91e 85be da92 96be 463c 743e c04c 7dbe
000002e0: b862 0cbd 0bf4 e63d d36c 873e 6066 dcbe
000002f0: 423b 993b 8deb 453e eda2 2b3d 8e5c 093e
00000300: 0dae c8bc 7dce babd 8bbf bcbd fc30 bfbb
00000310: a47f acbc 1794 3cbd 2d8e 81bd 360e 4abe
00000320: 9489 2abf 7e54 8fbd 5ceb b8bc f7f5 bbbd
00000330: 7416 83be fe53 b4bc 73d6 5e3d 67c1 72be
00000340: 267a 573b 31f6 62bd 966b 14be 2e7d e33d
00000350: e887 e23d 8869 5abd d646 903d 2521 c43c
00000360: 1134 9cbd 4253 22bd f13d 12bc 4b9a 623d
00000370: 0aaa 85be b1fa 453c 0911 a6bb a2a7 833d
00000380: 9812 8ebc 8e4c 82bd 8a0b 87bd e4f2 903c
00000390: 728f a83c f276 af3d 5cf5 d1be 0039 f1bd
000003a0: f22f 79be 67ce 1bbd 7aec 933d bd07 44bc
000003b0: ba58 883e 5825 b33d cd78 48be 2618 5cbd
000003c0: efdd b7bd c502 943d 38bf 843e dbe5 123d
000003d0: 5e66 3ebd ae82 9d3c 4bdb f0be 0537 e2be
000003e0: cd6f 03bf 1d16 1dbe cfaa 2f3e 435a 9fbd
000003f0: 9a09 3e3b d720 bdbc 19ce 68bd 8528 88be
-0.03939206 -0.037618637 -0.1825881 -0.089504234 -0.038661588 -0.010448638 -0.36384746 0.0318849
0.06302274 -0.37408885 0.016681781 -0.07167023 0.10736442 -0.07344474 -0.31114888 -0.08589926
-0.14019623 -0.14289586 -0.33574 -0.5776248 -0.35178682 0.0014146026 0.39064986 0.17037368
0.014518499 -0.066893324 0.014486395 0.026437214 -0.037510984 0.13927458 0.18548271 -0.014091811
-0.38172477 0.056984346 -0.14069243 -0.20054701 -0.008010645 -0.075869754 0.21181871 -0.039497733
0.07342534 0.00371485 -0.25260007 -0.16547099 0.018380499 -0.22308931 0.018039593 -0.27068767
-0.041813646 -0.102885254 0.01928714 -0.09476907 0.064372726 0.05849924 0.108519904 -0.11848821
-0.10405547 0.1604527 0.13518593 0.21268687 0.014086194 0.06126298 0.038602345 -0.038066685
-0.017962111 0.074934065 0.035987534 0.04378454 -0.006076288 0.16111346 -0.17743078 0.113450885
0.04896755 -0.13148257 0.047718238 0.12123272 0.026306985 0.21020687 -0.11876838 0.03304263
-0.33448324 -0.22839563 0.2236369 -0.05292641 -0.16892318 -0.0028380998 0.05473992 -0.14240131
-0.021050708 0.05073869 -0.050086424 -0.076517425 -0.0789167 -0.2516305 0.2226923 0.08812042
0.017608956 -0.3770599 -0.17736878 -0.18145786 -0.13910057 0.073865354 0.0010964326 0.013732989
-0.18204543 -0.017075138 -0.11134811 -0.05470853 -0.08010211 -0.13792482 -0.04688519 0.08452759
0.040661898 -0.111843154 0.096948825 0.0048402343 -0.4512114 0.044418 -0.07220712 -0.083137415
0.08036307 0.029195936 -0.6602603 0.059781034 -0.18627071 -0.16961037 0.113549806 0.07759744
-0.05070867 0.07621379 0.08579772 0.048337672 0.040173933 0.2528935 0.22005093 0.046379153
-0.17944282 -0.043566234 -0.438063 0.0430994 -0.1568714 -0.02587227 0.067559905 1.6815897e-05
-0.32362548 -0.1689841 -0.027128343 0.09053355 0.020989513 0.14775808 0.06293006 -0.02253604
-0.027818296 -0.015834458 -0.047531113 -0.38529348 0.033495616 0.14344513 -0.09820503 0.02172174
0.042038064 0.023618855 -0.20201202 0.16170464 0.007863417 0.06783603 0.02040976 -0.219412
-0.095467515 -0.018595556 -0.24026915 0.08340871 0.027384043 0.027120007 0.049707517 -0.03251321
-0.08760173 -0.029971037 0.08900147 -0.0234409 -0.26000002 -0.29408914 0.23851117 -0.24736309
-0.034273833 0.11277016 0.26450214 -0.43046856 0.0046762535 0.19328137 0.041903425 0.13414213
-0.024497056 -0.09121416 -0.092162214 -0.005834697 -0.021056958 -0.046039667 -0.06325946 -0.19731984
-0.6661618 -0.069985375 -0.022573166 -0.091777734 -0.25603068 -0.022012707 0.054403733 -0.2370659
0.0032879203 -0.055410568 -0.14494166 0.111078605 0.11061078 -0.0533233 0.07044761 0.023941586
-0.076271184 -0.039630182 -0.008925901 0.055322926 -0.26106292 0.012083695 -0.0050679487 0.06428458
-0.01734285 -0.06362258 -0.06593998 0.017693944 0.020576213 0.08567609 -0.41007507 -0.1177845
-0.24334696 -0.038038637 0.07222839 -0.011964736 0.26630193 0.08747357 -0.19577332 -0.053733967
-0.08977877 0.07227091 0.25927138 0.03586374 -0.046484344 0.019227352 -0.47042307 -0.44182602
-0.5134247 -0.15340467 0.17155002 -0.07780888 0.0028997422 -0.023086948 -0.056837175 -0.26593414

backbone.1.fc.bias f4 [128]
00000000: eae8 7b3c 1c2a f03b 3dc5 0c3d 7131 0a3d
00000010: d82c ec3c d0eb 063d 51f5 983c 517e ce3c
00000020: f3f8 143d e10d a63c 1a6b f93b 4a4e e7bb
00000030: 563a 923b 3fb5 36bb c317 cb3c b8fe 223c
00000040: b468 5b3c 776b 26bb badf a53b 3f70 81bb
00000050: 0a75 5d3b 9153 29bb e893 163d c5bd a13b
00000060: 3163 603c b889 093d fae0 d83c d1b5 483b
00000070: 1760 093c 4d7d aa3c 270a f139 b083 723c
00000080: cd17 f73c 880f b13c 034c 6c3c 4a83 9c3c
00000090: 6c43 fd3b f60a c73c d6b5 2fbb 8eb8 2dbc
000000a0: 1a4a dab9 ec3f 1c3c 0867 1f3d 24bc 423c
000000b0: 7aa9 9db9 6230 853c 6ef2 303d fb46 d53c
000000c0: 7af7 a03c 865b 363b 2c98 343c a4b5 0c3d
000000d0: 520b 383d f5ce 153d 22d6 dc39 86ca bebb
000000e0: e83b dd3a 0e12 743c 6497 943c 9305 33bb
000000f0: 4389 2c39 1e4a 64bb c055 703c e7b3 1d3d
00000100: 349f 19bc aae3 553d 3fc3 f13c 96d1 90bb
00000110: 504b 173d 17a4 4c3c dadb 393d 9f1f b83c
00000120: 5a53 153c 0591 0f3d 9af6 d23b 6d5e 463c
00000130: 739d 923c 9d27 203c 13b2 633c 7a1a b53c
00000140: d26e 50bb ce7e f63c b13b 6439 e0d6 6a3c
00000150: bf9b f23b 1bbe c93c 5eb3 323d cfe1 333c
00000160: ef2f 133d 524f 093b 4a91 843c a9c5 3bba
00000170: be55 1b3c c2a3 013c 6524 8aba 7b9c 89ba
00000180: 7a66 7b3c 77f3 3cbb daaa 2f3d b27f fa3c
00000190: 1919 813c 383c c3ba 5a00 b93c bde8 4d3c
000001a0: 2d30 883c 755d 993c b4d5 923c 9203 1a3d
000001b0: 1431 c63b 658f 703c 7037 ce3c b5da 863c
000001c0: 426e f73c e8ca 1e3d 46f7 563c 1066 a53c
000001d0: f0fb a43c e877 f93c 84f2 013d d486 ea3c
000001e0: a092 cf3c 78fd 923c 08fe 343d e8bc c23c
000001f0: f3d7 b43c 40aa 243d 3121 a1bb b3f6 173c
0.015375355 0.0073292386 0.03436779 0.033738557 0.028829977 0.032939732 0.018671663 0.025206717
0.03637023 0.02027029 0.0076116445 -0.0070588933 0.0044625206 -0.0027879027 0.024791604 0.009948425
0.013391662 -0.0025393644 0.0050620707 -0.0039501484 0.0033791685 -0.0025837163 0.03676215 0.0049359524
0.013695524 0.033578604 0.026474465 0.003062595 0.008384726 0.020811701 0.00045974666 0.014801905
0.030162716 0.021613851 0.0144224195 0.019105572 0.0077289846 0.024297219 -0.0026811264 -0.010603083
-0.0004163541 0.009536725 0.038916618 0.0118856765 -0.00030071643 0.016258422 0.04319995 0.026034823
0.019649256 0.0027825548 0.011022609 0.034352913 0.04493267 0.036574323 0.0004212121 -0.0058224825
0.0016878815 0.014896883 0.018138595 -0.0027316555 0.00016454332 -0.0034834216 0.014668882 0.038501646
-0.009376336 0.05221907 0.029512046 -0.004419516 0.036937058 0.012490294 0.045375682 0.022476016
0.009114111 0.03505041 0.0064380886 0.012107474 0.017897343 0.00977507 0.013897437 0.022107352
-0.0031804335 0.030089762 0.00021766011 0.014333457 0.0074038203 0.024626782 0.04362809 0.01097913
0.035934385 0.002095182 0.01618256 -0.00071629375 0.009480892 0.007912578 -0.0010539411 -0.0010498905
0.015344257 -0.002883164 0.042887546 0.030578468 0.015759038 -0.0014895266 0.022583175 0.012567696
0.016624535 0.018721322 0.017924167 0.03760106 0.006048331 0.014682625 0.025172919 0.01646171
0.030203942 0.038767725 0.013120478 0.020190269 0.020139664 0.030452684 0.03172542 0.028628744
0.025338471 0.017943129 0.044187576 0.023771718 0.022075629 0.040201426 -0.004917287 0.009275126

backbone.1.bn.weight f4 [128]
00000000: ddd2 8e3f 276c a43f 654c da3f b5f3 933f
00000010: 7a14 8e3f 8ba1 cf3f a89d 8f3f c2ba a03f
00000020: dad9 d93f e297 ba3f 45b9 e23f 9552 d53f
00000030: 6826 c83f 42fb 943f 34d8 0a40 9145 8e3f
00000040: b885 0640 301c b43f 8a2c b13f 75d0 a43f
00000050: 4e47 a93f 9e59 3f40 3d55 df3f fa11 b23f
00000060: 93fa c93f 2e1d ec3f f490 a33f 09b0 d83f
00000070: d879 8c3f e6b6 e33f 81c5 913f 4ac2 ad3f
00000080: 5cb9 bb3f 8aa7 f53f 0358 e93f 5af6 aa3f
00000090: 69c4 c13f 8580 ce3f 0267 3a40 6a5f c03f
000000a0: 67d6 2440 3f14 ce3f 976e a63f 8fc9 a23f
000000b0: afee 4040 0432 b93f 3c0a de3f b7e3 bd3f
000000c0: f1ef b03f e65e 0140 96f5 8d3f 1ed0 be3f
000000d0: 186c bd3f 2c81 b43f 371b b43f 8c77 c43f
000000e0: 1ab9 b13f e51d cf3f 82e2 9a3f 945e 4840
000000f0: a792 a73f dcb6 c03f 71e1 bf3f 8208 b43f
00000100: e2d8 be3f 85ed d73f 57c0 d33f 140d 3240
00000110: 1cd7 cf3f f052 9d3f 3bbc c23f d3b2 bf3f
00000120: be38 af3f 0a55 c03f 8eeb a63f f23f ca3f
00000130: ed91 ab3f 5298 b63f d08b ba3f 8506 e23f
00000140: a1eb 2640 18d7 b73f fe99 3940 5347 a83f
00000150: a988 b53f c4fe a63f 82b4 c33f f9f0 b13f
00000160: 9771 e33f 5e76 9c3f 8b39 a63f 68af 2140
00000170: 8041 a23f c5b6 a93f d44d ce3f cecd 3c40
00000180: 2304 903f d016 4240 1725 df3f 689c c93f
00000190: e00f be3f f9f8 a83f 7f12 a03f 785b 8c3f
000001a0: 83c1 9e3f f1ab cc3f 1dbc a33f b0d5 a63f
000001b0: 3c4d f93f 85fe cd3f 313b b03f 0339 c03f
000001c0: e69b c03f a938 ca3f c589 ba3f 22f6 b63f
000001d0: 413a a13f a55c dc3f 1564 d53f b50f 983f
000001e0: 70d2 e43f 2d2b d03f a979 d83f e133 b13f
000001f0: cff1 a93f d9b1 a23f 9964 3640 da18 c23f
1.11581 1.2845505 1.7054564 1.1558748 1.1099999 1.6221174 1.1219988 1.2556994
1.7019608 1.4577601 1.771279 1.6665827 1.5636721 1.1639178 2.169446 1.111498
2.1019115 1.4071102 1.3841717 1.2876116 1.3224885 2.9898448 1.7447888 1.3911736
1.5779594 1.8446405 1.2778611 1.6928722 1.0974684 1.7790191 1.1388398 1.3574917
1.4665942 1.9191754 1.8229984 1.335643 1.5138065 1.6132971 2.912537 1.5029118
2.575586 1.6099929 1.3002499 1.2717761 3.014568 1.4468389 1.7346873 1.4835118
1.3823224 2.0214171 1.1090572 1.4907262 1.4798613 1.410192 1.4070805 1.5348983
1.3884614 1.6180998 1.2100375 3.1307726 1.309163 1.5055804 1.4990674 1.4065096
1.4909937 1.686936 1.6543072 2.7820482 1.6237521 1.2290936 1.5213693 1.4976448
1.3689191 1.5025952 1.3040636 1.5800765 1.3403908 1.4265234 1.4573917 1.765824
2.6081316 1.4362516 2.900024 1.3146766 1.418233 1.3046498 1.5289462 1.3901664
1.776904 1.2223623 1.2986311 2.526331 1.2676239 1.3258902 1.6117501 2.9500613
1.1251262 3.0326424 1.7433194 1.5750856 1.4848595 1.320098 1.2505645 1.0965414
1.2402805 1.5989972 1.2791783 1.3033962 1.9476695 1.6093298 1.3768064 1.5017399
1.5047576 1.5798541 1.4573294 1.4293864 1.2595903 1.7215773 1.6671168 1.1879793
1.787672 1.6263176 1.6912128 1.3843957 1.3276919 1.2710525 2.84989 1.5163834
