Ghost_RMSD/checkpoints_full/grn_best.pt (torch, 188677 bytes, 15 tensors)

backbone.0.fc.weight f4 [256, 38]
0	0xbe483d7d	-0.19554706
1	0xbe479e80	-0.19494057
2	0x3d02ec49	0.03196362
3	0x3b11b1a2	0.0022231122
4	0x3e267453	0.16255312
5	0x3d12fe48	0.035887033
6	0x3e47b0e3	0.1950107
7	0xbe94350e	-0.28946728
8	0xbd63ff80	-0.055663586
9	0xbeaed2b4	-0.3414513
10	0xbdb56b05	-0.08858303
11	0xbd3b8355	-0.045779545
12	0xbe826602	-0.2546845
13	0x3e029a2b	0.12754123
14	0xbc428ed3	-0.011874872
15	0x3de309f7	0.11085885
16	0xbe6aa1f5	-0.22913344
17	0x3da8394a	0.08214052
18	0xbe7d3ed2	-0.24730995
19	0xbe39a51a	-0.18129387
20	0x3e81a356	0.25319928
21	0x3e5fd86b	0.218599
22	0x3e287706	0.16451654
23	0x3ea4199e	0.32050794
24	0xbe9be292	-0.30446297
25	0x3d3269be	0.043557875
26	0x3e38bfb3	0.18041877
27	0xbe4182a2	-0.18897489
28	0xbe419237	-0.18903433
29	0xbcb1d8f9	-0.021709906
30	0xbe10a696	-0.14126047
31	0x3f439829	0.7640405
32	0x3e4c1ba7	0.19932424
33	0xbe3d4fd1	-0.18487479
34	0xbe116082	-0.14196971
35	0x3f127dcd	0.57223207
36	0xbe0f6c2d	-0.1400611
37	0xbe0ba0cc	-0.13635558
38	0x3dcc0855	0.09962527
39	0xbf01ef28	-0.5075555
40	0x3c8d90f8	0.01728104
41	0x3e02b548	0.12764466
42	0xbd29b9c0	-0.04143691
43	0xbd8e9f7f	-0.06964015
44	0x3d95f838	0.073227346
45	0x3da31813	0.07963576
46	0x3f19bef8	0.6005702
47	0xbebd1776	-0.36931962
48	0xbe5094e1	-0.20369293
49	0x3e7202b5	0.23633845
50	0xbe53dccd	-0.20689698
51	0xbddeeb75	-0.108847536
52	0x3e8cb960	0.2748518
53	0x3ccc7208	0.024956718
54	0x3ed2fc0b	0.4120792
55	0x3c70c203	0.0146946935
56	0xbecec714	-0.4038626
57	0x3e728d40	0.23686695
58	0xbd5e4fce	-0.054275326
59	0x3e2dceab	0.16973369
60	0x3dbfc3ab	0.093634926
61	0xbd50dfb6	-0.050994597
62	0x3ebd31c6	0.36952037
63	0x3f075a5e	0.52872264
64	0x3e03ea43	0.12882333
65	0x3d804f12	0.062650815
66	0x3e7dbdaf	0.2477939
67	0x3c73b3df	0.014874428
68	0xbea72f31	-0.32653192
69	0x3e2d149f	0.16902398
70	0xbd999124	-0.074983865
71	0xbe36af42	-0.17840293
72	0x3d5c0588	0.053716213
73	0x3cfbefb0	0.03075394
74	0xbd989844	-0.07450917
75	0xbeba57b9	-0.36395052
76	0xbd902f46	-0.07040267
77	0xbdd4a669	-0.10383303
78	0x3dd73ff0	0.10510242
79	0x3d9b15e1	0.075725324
80	0x3e8ad21d	0.2711343
81	0x3e9af19c	0.30262458
82	0xbdb9a225	-0.0906413
83	0x3ddfbb6f	0.10924422
84	0xbb83b966	-0.004019904
85	0x3d53f89f	0.051750775
86	0x3df27d18	0.11840266
87	0x3e2ecd9c	0.17070621
88	0x3e49c58a	0.19704261
89	0x3e2a5342	0.16633323
90	0x3e71c974	0.23612005
91	0x3f00197c	0.50038886
92	0x3ed96aff	0.42464444
93	0xbd456179	-0.04818866
94	0x3e07ba85	0.13254745
95	0x3d79a221	0.060945634
96	0xbea0e8bd	-0.31427565
97	0xbeab21b5	-0.33424154
98	0xbe3ba336	-0.18323979
99	0xbd68e70a	-0.05686096
100	0xbe4d2a48	-0.2003566
101	0xbc11d6f3	-0.008901346
102	0xbeb374cd	-0.3505005
103	0xbed32ac9	-0.4124358
104	0xbbeb00cc	-0.007171726
105	0x3f024c29	0.5089746
106	0x3e3b830e	0.18311712
107	0xbe187bdb	-0.14890997
108	0x3dc3bbf7	0.09557336
109	0x3e8f7864	0.28021538
110	0x3ec700f0	0.38867903
111	0xbecf09e1	-0.40437225
112	0xbdd35b4b	-0.10320147
113	0xbe30e4ad	-0.17274733
114	0x3c207a04	0.009794716
115	0xbdca0a33	-0.098652266
116	0xbe00643f	-0.12538241
117	0xbd7fd65f	-0.0624603
118	0xbdd7099b	-0.10499879
119	0x3ea738d4	0.32660544
120	0xbdaaba58	-0.083363235
121	0x3eefc0b7	0.46826717
122	0xbf17ff81	-0.59374243
123	0xbe8245ff	-0.25444028
124	0xbeb5399c	-0.35395515
125	0xbe4d8a4f	-0.20072292
126	0x3ba7cd5c	0.0051209163
127	0x3eba4cb7	0.36386654
128	0x3bd663be	0.006542652
129	0xbe079d02	-0.13243487
130	0x3e40bcff	0.18822096
131	0xbc71d335	-0.014759828
132	0xbec931c4	-0.3929578
133	0xbd0bcdf6	-0.034131967
134	0x3edbe9e5	0.42951885
135	0xbebcd437	-0.36880657
136	0x3cfdb5e3	0.03097052
137	0xbf304cb2	-0.6886703
138	0x3ec2e875	0.38067976
139	0x3dc92b62	0.09822728
140	0xbe889083	-0.26672754
141	0xbd92b0ae	-0.07162605
142	0xbd598db3	-0.05311365
143	0xbe21f518	-0.15816152
144	0xbe6fcc91	-0.2341788
145	0xbdff5fd3	-0.12469449
146	0x3e42399c	0.18967289
147	0xbdb42028	-0.08795196
148	0xbea8d5b2	-0.32975537
149	0xbe80830c	-0.2509998
150	0xbd4c6d89	-0.04990915
151	0x3d87f573	0.066386126
152	0xbe9682df	-0.29396722
153	0x3d95e9fc	0.073200196
154	0x3d75a795	0.05997427
155	0xbeb5994f	-0.35468528
156	0xbdf4ecae	-0.119592056
157	0xbeaff383	-0.34365472
158	0xbe00d1e5	-0.12580068
159	0x3da90e49	0.08254678
160	0x3d1a36c6	0.037649892
161	0x3e0018c5	0.12509449
162	0xbf1348ff	-0.5753326
163	0x3c0dfd9f	0.008666425
164	0x3c9e5062	0.019325439
165	0xbcfff5b2	-0.031245086
166	0x3db3a58a	0.087718084
167	0xbf1ef85b	-0.6209771
168	0x3dffa01e	0.12481712
169	0x3d249d26	0.04018893
170	0xbe3b0a18	-0.18265569
171	0x3e836ed5	0.25670496
172	0xbee733a5	-0.4515659
173	0xbdec568d	-0.11539946
174	0xbe3728d9	-0.17886676
175	0x3e0f5ef2	0.14001063
176	0x3db358a4	0.08757141
177	0xbdb57cc8	-0.08861691
178	0x3ddcaabc	0.107747525
179	0x3ef62c70	0.48080778
180	0x3d6f3232	0.05839748
181	0x3b073880	0.0020633042
182	0x3dedeee6	0.11617832
183	0x3de9c10a	0.114137724
184	0xbda6ca72	-0.08144082
185	0x3c2f9eae	0.0107189845
186	0x3d388823	0.045051705
187	0xbd8f1d36	-0.069879934
188	0xbe765bbb	-0.2405843
189	0xbe7db733	-0.24776916
190	0xbe40cd78	-0.1882838
191	0x3e1a6f18	0.15081441
192	0xbe9c2bb7	-0.30502102
193	0x3e549142	0.20758536
194	0x3da77ad5	0.08177725
195	0x3e97aa90	0.29622316
196	0xbe4512db	-0.19245474
197	0x3eb5cc74	0.35507548
198	0x3e51ee91	0.20501162
199	0xbea8036f	-0.3281512
200	0xbe21e30a	-0.15809265
201	0x3cc5e31a	0.024156142
202	0x3daaf322	0.08347155
203	0x3e9bd3f9	0.3043516
204	0xbe7295b7	-0.23689924
205	0x3f2f8612	0.6856395
206	0x3c82746b	0.015924653
207	0xbea32672	-0.3186527
208	0x3df8aab0	0.12141931
209	0xbda27f02	-0.07934381
210	0x3e5087c7	0.20364295
211	0xbdecf08f	-0.115693204
212	0x3f0e8f71	0.55687624
213	0xbe9197d3	-0.28436145
214	0x3dfd2ec8	0.123624384
215	0xbe85176b	-0.2599443
216	0x3c81598b	0.015789768
217	0x3e0f0960	0.1396842
218	0xbdb596ae	-0.088666305
219	0xbeca2645	-0.39482322
220	0x3eba90fe	0.36438745
221	0x3e84404e	0.2583031
222	0x3d40ae27	0.047041085
223	0xbefe1a78	-0.4962957
224	0xbe434094	-0.19067603
225	0x3e5fd8af	0.21860002
226	0xbd37467b	-0.04474495
227	0xbddefc9f	-0.108880274
228	0xbe6d9ce3	-0.23204379
229	0xbe4202d6	-0.18946394
230	0xbe5dec10	-0.21672082
231	0xbd245846	-0.040123247
232	0x3eda7e5d	0.42674533
233	0x3c9731ae	0.018456306
234	0x3dc04f0d	0.09390078
235	0x3e5b602b	0.21423404
236	0x3ec73411	0.3890691
237	0xbd9fab88	-0.07796389
238	0x3e0e9b0a	0.1392633
239	0x3ebdcf08	0.37072015
240	0xbee0c095	-0.43896928
241	0x3e07ecdf	0.13273953
242	0xbe7d5462	-0.2473922
243	0xbdfc89d1	-0.12330974
244	0xbe05d94f	-0.13071178
245	0x3b5bb801	0.0033526423
246	0x3e493885	0.19650467
247	0xbe87b6ef	-0.26506755
248	0xbea916ff	-0.33025357
249	0x3f11c255	0.5693715
250	0x3e8f7aea	0.28023463
251	0xbdbb7319	-0.091528125
252	0x3bdfb805	0.0068273568
253	0xbd69889f	-0.057015058
254	0x3e886b6e	0.26644462
255	0xbb78572b	-0.0037893753

backbone.0.fc.bias f4 [256]
0	0x3a0e1687	0.0005420227
1	0x3a6f9187	0.0009138812
2	0xb9b3472f	-0.00034194576
3	0xb9663075	-0.00021952561
4	0x39570fa2	0.00020509821
5	0xba3cdc8a	-0.0007204494
6	0xb936b2fd	-0.00017423551
7	0x3a336f2e	0.0006844875
8	0xbaf57977	-0.0018728216
9	0xb9ed2663	-0.00045232763
10	0x396836a6	0.00022145602
11	0xb972a2c3	-0.00023139552
12	0x39ac4083	0.00032854461
13	0x39bbc1b0	0.00035811728
14	0x3a108620	0.000551315
15	0xba552676	-0.00081310363
16	0xb899ce9b	-7.334092e-05
17	0x399cfe1c	0.00029943965
18	0x3a0036ff	0.00048910076
19	0x3a563be0	0.0008172374
20	0x3ad6fdc0	0.0016402528
21	0x38a98bb4	8.08457e-05
22	0x383d403f	4.5120945e-05
23	0x39b8eec1	0.000352731
24	0xb9b848f8	-0.0003514958
25	0x3a1e9a7a	0.00060502405
26	0x399f05ba	0.0003033111
27	0xb907ee5e	-0.00012963402
28	0x38d1db44	0.00010006738
29	0x38716a45	5.755785e-05
30	0xb98dc1f8	-0.00027038134
31	0x39596845	0.00020733576
32	0x39e2e8cf	0.00043279535
33	0xba83ad80	-0.0010046214
34	0xb900f5f5	-0.00012298657
35	0xb9978a84	-0.00028904167
36	0x39ce3c9d	0.00039336542
37	0xb8f5faad	-0.000117292024
38	0x3a06d220	0.00051430054
39	0x392dd9a7	0.00016579647
40	0x390a403f	0.00013184639
41	0xb78ac6c1	-1.6543434e-05
42	0xb9e21f1f	-0.00043129266
43	0x39530b59	0.00020126755
44	0x3a4e2fc7	0.0007865396
45	0xb9a2e398	-0.00031068618
46	0x390319c9	0.00012502739
47	0xb9e68ccd	-0.00043973923
48	0x3a12edb3	0.0005604878
49	0xb995b89a	-0.00028557034
50	0xb8cbfccc	-9.7268814e-05
51	0xba614a4e	-0.0008594141
52	0x39926900	0.0002792552
53	0xba8e9de4	-0.0010880795
54	0xb90ae7d1	-0.00013247064
55	0xba637dd3	-0.0008678112
56	0x38465cd1	4.729332e-05
57	0xb8ef4030	-0.00011408364
58	0x3a8609da	0.0010226325
59	0x37c18f21	2.3074042e-05
60	0xb9a04c61	-0.00030574485
61	0x38cc96fd	9.755602e-05
62	0xb9b53977	-0.00034565825
63	0xb8c439f8	-9.356806e-05
64	0xb8f9ae79	-0.00011905743
65	0xba449297	-0.000749865
66	0xb9f8cf3b	-0.00047456645
67	0x393e24b8	0.00018133491
68	0xb9bffcd8	-0.00036618742
69	0xb8df6cda	-0.00010653744
70	0x39993e9f	0.0002922909
71	0xb98de94b	-0.00027067433
72	0xb9addd4c	-0.0003316201
73	0xb8acf6db	-8.2475795e-05
74	0xba369d8c	-0.00069662253
75	0x3a5e6ba5	0.0008484668
76	0x3a08bb97	0.00052159413
77	0x3988ff92	0.00026130356
78	0xb78eda53	-1.7029384e-05
79	0x36b8073d	5.48447e-06
80	0xb951a308	-0.00019992527
81	0x3932da2f	0.00017056683
82	0xba001c6a	-0.00048870465
83	0x3975e961	0.00023451961
84	0xb990de97	-0.00027631663
85	0x39c8e3b1	0.00038316616
86	0xb858ea5f	-5.1716688e-05
87	0x3ac78e8e	0.001522498
88	0xb99780f2	-0.00028897036
89	0x398e5f60	0.0002715541
90	0xba7c8162	-0.00096323167
91	0x39271e5e	0.00015937674
92	0x3a0ce9f5	0.00053754385
93	0x390501e3	0.00012684571
94	0xb9bfa248	-0.00036551268
95	0x3a06dd32	0.0005144655
96	0xb90757fd	-0.00012907381
97	0xba26d6ad	-0.00063643866
98	0xb90b9f00	-0.00013315305
99	0xb8da21e0	-0.0001040136
100	0x37a009bf	1.9078025e-05
101	0x395840fe	0.00020623577
102	0xb9f53242	-0.00046767486
103	0x390092fb	0.00012261786
104	0xb9b8a588	-0.00035218545
105	0xb9e828dd	-0.00044280934
106	0xb97bec23	-0.00024025193
107	0xb95e9caa	-0.00021229932
108	0x38eeffcf	0.000113963724
109	0x39635133	0.00021678656
110	0x38dd41c4	0.00010550351
111	0xb8fae92e	-0.00011964362
112	0xb8e8a731	-0.00011093764
113	0x394c1e48	0.00019466237
114	0xb9320505	-0.00016977273
115	0x3942d9d0	0.00018582423
116	0x398e0197	0.00027085535
117	0xb71972ce	-9.146241e-06
118	0x3a0e6804	0.00054323697
119	0xb826959d	-3.9716822e-05
120	0x382c7dfd	4.112533e-05
121	0xba0f54cf	-0.00054676546
122	0x391e417f	0.00015092453
123	0x398e453d	0.00027135937
124	0x39131b34	0.00014029146
125	0xb91a4f87	-0.0001471621
126	0xb9a6d1b0	-0.00031818217
127	0x383d135c	4.507914e-05
128	0xb99c9842	-0.0002986808
129	0xb98af9ef	-0.00026507626
130	0x3a8e49ed	0.0010855772
131	0xba0fabe2	-0.00054806296
132	0x37fd763a	3.0215004e-05
133	0x3a90479b	0.0011007668
134	0x3a3b8956	0.00071539485
135	0xb92ea99c	-0.00016657118
136	0x354c9e55	7.6226326e-07
137	0x39aeb3fc	0.00033321965
138	0x39d686f7	0.00040917817
139	0x3a3fe7af	0.00073205953
140	0xba155ed5	-0.000569803
141	0x3a539c82	0.0008072333
142	0x396d032b	0.00022603261
143	0x39d386ed	0.00040345584
144	0x3960b7fc	0.00021430844
145	0xb93bda69	-0.00017915074
146	0x3932a680	0.00017037429
147	0xb9f5f218	-0.00046910415
148	0xb9a41eb4	-0.00031303393
149	0xba760f9f	-0.0009386483
150	0x3a0d66b6	0.0005394028
151	0xb92952b8	-0.00016147911
152	0xb95c97c4	-0.00021037372
153	0xba58619d	-0.00082542916
154	0xb89396ec	-7.0376176e-05
155	0xba120b9f	-0.00055711897
156	0x3995e6ee	0.0002859155
157	0x3a00f2d8	0.0004918999
158	0xb8c6648e	-9.4601055e-05
159	0x3993442d	0.0002808882
160	0x3946c89b	0.00018957483
161	0x392874d0	0.00016065245
162	0xb8e3c7dc	-0.0001086143
163	0x3a5cd0e1	0.00084234594
164	0xb9360ca4	-0.00017361582
165	0x3950d4da	0.00019915719
166	0x3a2d0211	0.0006599734
167	0x39b69b1e	0.00034829316
168	0x39284376	0.0001604686
169	0x38c6a579	9.4721974e-05
170	0x3a00486a	0.0004893603
171	0xb79a9238	-1.8426319e-05
172	0xb9b38462	-0.00034240173
173	0x384e6c45	4.921506e-05
174	0xba754e14	-0.0009357643
175	0xb9e28a53	-0.0004320914
176	0xb9d86ee6	-0.00041281356
177	0x39f6b0c1	0.00047052468
178	0x3984a2d0	0.00025298307
179	0xb9a49a25	-0.00031395364
180	0xb8da4eed	-0.00010409751
181	0xba219441	-0.0006163754
182	0x3a8e64e5	0.0010863809
183	0x3a2d9201	0.00066211825
184	0xba30253d	-0.0006719416
185	0x3a22b64e	0.0006206975
186	0x39407900	0.00018355623
187	0x39e578db	0.00043768328
188	0x37b7fdbd	2.1933456e-05
189	0x3995c533	0.0002856642
190	0xba9a2ff7	-0.0011763562
191	0xb997d20f	-0.0002895747
192	0xb835cf53	-4.334685e-05
193	0x38f4f20a	0.0001167991
194	0xb9e0f5bf	-0.00042907704
195	0xb796db40	-1.798349e-05
196	0x38f52744	0.00011689824
197	0xb8cf177f	-9.874906e-05
198	0x3a416bc6	0.0007378425
199	0x39bba727	0.00035791958
200	0x39eabeaa	0.00044774014
201	0x38a8e753	8.053952e-05
202	0x39f9589c	0.00047559
203	0xba08348c	-0.00051958184
204	0x3a106ae0	0.00055090897
205	0x38ce006d	9.822925e-05
206	0x39ce2abd	0.00039323224
207	0xb9b202a6	-0.0003395278
208	0xba0f1110	-0.00054575596
209	0xb95eeeee	-0.00021260578
210	0x398918a8	0.00026149047
211	0x390a594f	0.00013193976
212	0x39d24be0	0.00040110853
213	0xba019430	-0.0004943041
214	0xb847be97	-4.7622798e-05
215	0x39d76f28	0.00041090813
216	0x3a619bc6	0.0008606281
217	0x363aef39	2.7855406e-06
218	0xb940816b	-0.00018358759
219	0x3900644d	0.00012244396
220	0xb6f9cb97	-7.4444793e-06
221	0x37744400	1.4559366e-05
222	0xba820132	-0.0009918569
223	0xb9b55db3	-0.00034592822
224	0x39d2f598	0.00040237303
225	0x3a65853d	0.0008755511
226	0x39678203	0.0002207831
227	0xb9a71ef9	-0.000318758
228	0x386d6f3e	5.6608806e-05
229	0xba999f05	-0.0011720365
230	0xba076c7b	-0.0005166006
231	0x3abe4619	0.001451674
232	0x3934788c	0.00017211045
233	0xb9f53c23	-0.00046774847
234	0xb73def51	-1.1320998e-05
235	0x39e0c870	0.00042873947
236	0x390c9fc9	0.00013410965
237	0xb9ee013f	-0.00045395826
238	0xb945dbb0	-0.00018869224
239	0x39af970d	0.00033491143
240	0x395d2e5d	0.00021093474
241	0x39739b04	0.00023232034
242	0x384ac3b9	4.8342834e-05
243	0xb9cff119	-0.00039661748
244	0xb9d89a16	-0.00041313533
245	0xb91fbacd	-0.0001523301
246	0x3a72191b	0.00092353084
247	0x3948fcca	0.00019167658
248	0x3a0ded4a	0.0005414082
249	0xb95579a1	-0.00020358573
250	0x39b17509	0.0003384727
251	0xbaf14f0e	-0.0018410401
252	0x3a164f3a	0.00057338516
253	0x3827b442	3.998378e-05
254	0xb9613426	-0.00021477099
255	0xb92c4a2a	-0.00016430827

backbone.0.bn.weight f4 [256]
0	0x3f810fa3	1.0082897
1	0x3f84e710	1.0383015
2	0x3f8189d1	1.0120183
3	0x3f7688da	0.9630257
4	0x3f7e22c4	0.992718
5	0x3f7f27ed	0.99670297
6	0x3f774062	0.96582615
7	0x3f7ed653	0.9954578
8	0x3f7e00ea	0.99220145
9	0x3f72658a	0.94686186
10	0x3f7c7dc6	0.98629415
11	0x3f8575ff	1.0426635
12	0x3f751fd3	0.95751685
13	0x3f815dd8	1.0106764
14	0x3f6dd056	0.9289602
15	0x3f81794e	1.0115144
16	0x3f806c69	1.0033084
17	0x3f85a378	1.0440512
18	0x3f77a15e	0.967306
19	0x3f7ecaac	0.99528
20	0x3f7cd19c	0.9875734
21	0x3f8288f7	1.0198048
22	0x3f7d9590	0.9905634
23	0x3f753183	0.95778674
24	0x3f8a7bfd	1.0819088
25	0x3f7c0027	0.9843773
26	0x3f7e83d0	0.9941988
27	0x3f789df3	0.9711601
28	0x3f89cf8c	1.0766463
29	0x3f8ae1ab	1.0850118
30	0x3f7bf093	0.9841396
31	0x3f765d0d	0.96235734
32	0x3f79b82a	0.9754664
33	0x3f83f6cc	1.0309691
34	0x3f7645c5	0.9620021
35	0x3f7e2b51	0.99284846
36	0x3f75619f	0.9585208
37	0x3f72bde6	0.9482101
38	0x3f8e93e6	1.1138885
39	0x3f7cc1bf	0.98733133
40	0x3f8becda	1.0931656
41	0x3f782e92	0.9694606
42	0x3f7765a6	0.9663948
43	0x3f762de2	0.9616376
44	0x3f79c199	0.9756103
45	0x3f85777e	1.0427091
46	0x3f7a437a	0.9775921
47	0x3f7630c0	0.96168137
48	0x3f75594b	0.95839375
49	0x3f7ba149	0.98292977
50	0x3f9971f7	1.1987904
51	0x3f7efe1b	0.99606484
52	0x3f7e70f3	0.99391097
53	0x3f80eaa9	1.0071613
54	0x3f7b02e7	0.98051304
55	0x3f84b134	1.0366578
56	0x3f70ec3a	0.94110453
57	0x3f82a60b	1.0206922
58	0x3f930d5a	1.148845
59	0x3f789d3e	0.9711493
60	0x3f810002	1.0078127
61	0x3f848ede	1.03561
62	0x3f7903d5	0.9727147
63	0x3f7c73a3	0.9861395
64	0x3f8a9d3c	1.0829234
65	0x3f7fcddc	0.9992349
66	0x3f7c6036	0.98584306
67	0x3f7d4316	0.9893049
68	0x3f7c23cc	0.9849212
69	0x3f758842	0.9591104
70	0x3f804cf2	1.0023482
71	0x3f80316f	1.0015086
72	0x3f88e649	1.0695277
73	0x3f77f4a5	0.9685767
74	0x3f812147	1.008828
75	0x3f82c0c6	1.021508
76	0x3f809f62	1.004864
77	0x3f78d661	0.97202116
78	0x3f838b88	1.0276957
79	0x3f86aefb	1.052215
80	0x3f8176af	1.0114344
81	0x3f7775a3	0.96663874
82	0x3f7bac33	0.9830963
83	0x3f7ef5be	0.9959372
84	0x3f87b678	1.060256
85	0x3f7ba163	0.9829313
86	0x3f7be342	0.9839364
87	0x3f88d0b9	1.0688697
88	0x3f764464	0.96198106
89	0x3f7c962a	0.9866663
90	0x3f7e2660	0.99277306
91	0x3f6e748e	0.931466
92	0x3f79035b	0.97270745
93	0x3f84f244	1.0386434
94	0x3f81769f	1.0114325
95	0x3f908d00	1.129303
96	0x3f8c584d	1.0964447
97	0x3f797d1c	0.97456527
98	0x3f76402b	0.9619166
99	0x3f7cca14	0.98745847
100	0x3f7a63dc	0.97808623
101	0x3f82c528	1.0216417
102	0x3f808b43	1.0042499
103	0x3f78d222	0.9719564
104	0x3f81fdd6	1.015559
105	0x3f84139b	1.0318483
106	0x3f7ddfb6	0.9916948
107	0x3f8509a4	1.0393567
108	0x3f7c25e4	0.98495317
109	0x3f7a5699	0.9778839
110	0x3f7d680c	0.9898689
111	0x3f8ab6c8	1.083703
112	0x3f79a44f	0.9751634
113	0x3f758411	0.9590464
114	0x3f848be3	1.035519
115	0x3f80d7d0	1.0065861
116	0x3f76f4ed	0.9646748
117	0x3f799100	0.9748688
118	0x3f822e77	1.017043
119	0x3f7d4b2c	0.9894283
120	0x3f7f47c3	0.99718875
121	0x3f7bfcfc	0.984329
122	0x3f76c4f4	0.96394277
123	0x3f85d217	1.0454739
124	0x3f851677	1.0397481
125	0x3f7cb8f3	0.9871971
126	0x3f84ff3d	1.0390393
127	0x3f80548c	1.0025802
128	0x3f7fc548	0.999104
129	0x3f807532	1.0035765
130	0x3f81a04d	1.0127045
131	0x3f77a66a	0.967383
132	0x3f7cc041	0.98730856
133	0x3f93d781	1.1550142
134	0x3f846c38	1.0345526
135	0x3f776f95	0.96654636
136	0x3f77c9a3	0.9679205
137	0x3f75f256	0.960729
138	0x3f859055	1.0434672
139	0x3f7c063a	0.98447
140	0x3f768353	0.96294135
141	0x3f89408a	1.0722821
142	0x3f77bc28	0.9677148
143	0x3f786a36	0.97037065
144	0x3f7e309a	0.9929291
145	0x3f7fdc5a	0.99945605
146	0x3f80f485	1.0074621
147	0x3f802309	1.0010692
148	0x3f8245c4	1.0177541
149	0x3f7d9535	0.99055797
150	0x3f76bf67	0.96385807
151	0x3f7bf0a2	0.9841405
152	0x3f7c63c4	0.9858973
153	0x3f7d5dc8	0.98971224
154	0x3f79363b	0.97348374
155	0x3f7beb08	0.98405504
156	0x3f82ee72	1.0229018
157	0x3f80d0f8	1.0063772
158	0x3f86b92e	1.0525262
159	0x3f7b95e6	0.982756
160	0x3f751b61	0.957449
161	0x3f7cd8eb	0.9876849
162	0x3f84642b	1.0343069
163	0x3f7e8eaa	0.9943644
164	0x3f7917cc	0.97301936
165	0x3f7fe559	0.9995933
166	0x3f7a7e6f	0.9784917
167	0x3f836729	1.0265857
168	0x3f77dcd5	0.9682134
169	0x3f7a30e9	0.9773088
170	0x3f7a4561	0.97762114
171	0x3f783b49	0.9696546
172	0x3f891296	1.0708797
173	0x3f7877f6	0.97058046
174	0x3f81b63c	1.0133739
175	0x3f73c919	0.95228726
176	0x3f684179	0.90724903
177	0x3f879a2c	1.0593925
178	0x3f843b42	1.0330584
179	0x3f7cf108	0.98805285
180	0x3f7d357b	0.9890973
181	0x3f804a2b	1.0022634
182	0x3f83754d	1.0270172
183	0x3f80a25e	1.004955
184	0x3f838c9e	1.0277288
185	0x3f7832ea	0.9695269
186	0x3f91e471	1.139784
187	0x3f805870	1.0026989
188	0x3f78bd99	0.97164303
189	0x3f85ba04	1.0447392
190	0x3f7f7c4d	0.9979904
191	0x3f8da286	1.1065223
192	0x3f84ca59	1.0374252
193	0x3f95cbf7	1.170287
194	0x3f7f1c91	0.99652964
195	0x3f74d98e	0.9564446
196	0x3f8295a8	1.0201921
197	0x3f73b09b	0.95191354
198	0x3f7a3eac	0.9775188
199	0x3f7a4b8e	0.9777154
200	0x3f767630	0.9627409
201	0x3f822bcb	1.0169615
202	0x3f7a086e	0.9766911
203	0x3f821def	1.0165385
204	0x3f800ab6	1.0003269
205	0x3f7d062e	0.98837554
206	0x3f7e7151	0.9939166
207	0x3f800348	1.0001001
208	0x3f77611c	0.9663255
209	0x3f821ba7	1.0164689
210	0x3f78e618	0.97226095
211	0x3f7a19a0	0.9769535
212	0x3f800ddb	1.0004228
213	0x3f7a6eb8	0.97825193
214	0x3f839ee0	1.028286
215	0x3f7eaf9b	0.994867
216	0x3f83a161	1.0283624
217	0x3f86d243	1.0532917
218	0x3f845fb4	1.0341706
219	0x3f7bcaac	0.9835613
220	0x3f7e84ca	0.9942137
221	0x3f80dca9	1.006734
222	0x3f795c3f	0.9740638
223	0x3f7c7e44	0.98630166
224	0x3f820b6d	1.0159737
225	0x3f8bbe7c	1.0917506
226	0x3f7dbc4e	0.99115455
227	0x3f71e20c	0.94485545
228	0x3f78c1b0	0.97170544
229	0x3f9182af	1.1368006
230	0x3f8312d0	1.0240116
231	0x3f872134	1.0557008
232	0x3f73ce69	0.9523683
233	0x3f828a26	1.019841
234	0x3f72b683	0.9480974
235	0x3f87c235	1.0606142
236	0x3f7dc64f	0.9913072
237	0x3f76567c	0.96225715
238	0x3f850022	1.0390666
239	0x3f7c7d73	0.9862892
240	0x3f81fc65	1.015515
241	0x3f8dab9e	1.1067998
242	0x3f7e5c31	0.9935942
243	0x3f7d7c0f	0.99017423
244	0x3f757bae	0.95891845
245	0x3f7cbc99	0.9872528
246	0x3f7c5383	0.9856493
247	0x3f81de33	1.0145935
248	0x3f7f13aa	0.9963938
249	0x3f849bc3	1.0360035
250	0x3f777c3a	0.9667393
251	0x3f84e081	1.0381013
252	0x3f7f2860	0.9967098
253	0x3f786940	0.970356
254	0x3f81712d	1.0112664
255	0x3f80db02	1.0066836

backbone.0.bn.bias f4 [256]
0	0xbd9d68a3	-0.076859735
1	0xbd7c4bd3	-0.06159575
2	0xbbce1307	-0.0062888893
3	0xbd5366b2	-0.05161161
4	0xbd9dde55	-0.07708422
5	0x3bbb6a27	0.0057194415
6	0xbd0707bb	-0.032966357
7	0x3b4dc107	0.003139557
8	0x3c8602b3	0.016358709
9	0xbd14b79c	-0.036307916
10	0xbd005f07	-0.031340625
11	0xbc96068f	-0.018313674
12	0xbcf21b33	-0.029553985
13	0xbcb06594	-0.021532811
14	0xbd5214e6	-0.05128946
15	0xbda70ec0	-0.0815711
16	0xbc96f24f	-0.018426089
17	0xbd84c521	-0.06482912
18	0xbd44cde3	-0.04804791
19	0x3c05fba3	0.008177671
20	0xbca2b411	-0.019861253
21	0xbd89f26a	-0.0673569
22	0xbd49d89f	-0.04927885
23	0xbd82d707	-0.063886695
24	0x3d0b6536	0.03403207
25	0xbc965358	-0.018350288
26	0xbd990dc3	-0.07473328
27	0xbd4d88c2	-0.05017925
28	0xbd668dee	-0.0562877
29	0x3d02f950	0.031976044
30	0x395a6c70	0.00020830496
31	0xbc6a29ed	-0.014292222
32	0xbc6493fa	-0.013951296
33	0xbd7a7e07	-0.061155345
34	0xbd44dd1f	-0.04806244
35	0xbcafe8bf	-0.021473287
36	0xbcac5a65	-0.021039197
37	0xbcbc22ce	-0.022965815
38	0xbda81d29	-0.08208687
39	0xbdb30ded	-0.087428905
40	0x3bf357ba	0.0074262293
41	0xbd837fd4	-0.06420866
42	0xbd1d0f03	-0.038344394
43	0xbda9fcd6	-0.08300178
44	0xbc464d9b	-0.0121034635
45	0x3b7fd7d6	0.003903856
46	0xbcc481df	-0.023987709
47	0xbd1dd999	-0.038537595
48	0xbd025bd8	-0.03182587
49	0xbd1abcfb	-0.037777882
50	0x3d7f0624	0.062261716
51	0xbbd7f798	-0.006590795
52	0xbd624abc	-0.055247054
53	0xbc6017b8	-0.01367753
54	0xbd0037ad	-0.031303097
55	0x3b4ff366	0.003173077
56	0xbcc7da70	-0.024396151
57	0xbd20d6f9	-0.039267514
58	0x3c3d191a	0.011541629
59	0xbd2789cc	-0.040902898
60	0xbc04f385	-0.0081147
61	0x3c5508bf	0.0130025735
62	0xbd789303	-0.060687076
63	0xbcc2b950	-0.023770005
64	0x3c44c11e	0.012008933
65	0xbbc03100	-0.0058652163
66	0xbd3b1d3e	-0.045682184
67	0xbd0f9f83	-0.03506423
68	0xbd16b0c3	-0.036789667
69	0xbcc3b175	-0.023888329
70	0xbd91df80	-0.07122707
71	0xbc15b7c1	-0.009138049
72	0x3d4fd602	0.050741203
73	0xbd3213d5	-0.043475945
74	0x3ce3ca60	0.02780646
75	0xbca2fe3e	-0.019896623
76	0xbc6bfe8c	-0.01440395
77	0xbd73f352	-0.05955822
78	0x3c8ef33f	0.017449973
79	0x3c45c551	0.01207097
80	0xbd953279	-0.072850175
81	0xbce18acb	-0.027532002
82	0xbd64be50	-0.05584556
83	0xbcd5855e	-0.026064571
84	0x3d21ab7f	0.039470192
85	0xbd1521ca	-0.036409177
86	0xbcccf595	-0.025019446
87	0x3c4dc78a	0.012559781
88	0xbd48e808	-0.049049407
89	0x3aefc877	0.0018293996
90	0x38fc08df	0.00012017949
91	0xbd9bd96a	-0.07609828
92	0xbd8c0efb	-0.06838795
93	0xbc591ae9	-0.013251045
94	0x3cd2c1ff	0.02572727
95	0xbd793858	-0.06084475
96	0x3d3b28cd	0.045693208
97	0xbd06795e	-0.03283059
98	0xbd06ea0b	-0.032938045
99	0xbc907dc0	-0.017638087
100	0xbcd7985e	-0.026317772
101	0x3d032188	0.0320144
102	0xbc933489	-0.017969387
103	0xbd01dfdc	-0.03170763
104	0xbc5976a5	-0.013272916
105	0x3cb5f0cf	0.022209553
106	0xbd18d65a	-0.037313797
107	0xbc7e083c	-0.015504893
108	0xbaa3a6fa	-0.0012485676
109	0xbd3f758e	-0.04674297
110	0xbd16633b	-0.036715727
111	0x3d829afd	0.06377218
112	0x3c151549	0.009099313
113	0xbd873d62	-0.06603505
114	0x3cd08142	0.02545226
115	0xbc03918e	-0.008030308
116	0xbd4f68c7	-0.050637033
117	0xbd4aa4a9	-0.04947344
118	0xbcb388fb	-0.021915903
119	0x3d44dc0c	0.048061416
120	0xbd8e8e12	-0.069606915
121	0xbd5270fc	-0.05137728
122	0xbd0df07e	-0.03465318
123	0xbd5e0181	-0.054200653
124	0x3c5ed5d5	0.013600786
125	0xbc9feadf	-0.019521175
126	0xbc50c6ea	-0.012742737
127	0xbc8160c6	-0.015793215
128	0x3c2949d1	0.010332541
129	0x3c723fcd	0.014785719
130	0xbd514e3d	-0.051100004
131	0xbd981a69	-0.07426912
132	0xbc7d6f9b	-0.015468503
133	0xbc6ee209	-0.014580258
134	0xbb93598a	-0.004496758
135	0xbd85d95f	-0.06535601
136	0xbdc7469f	-0.09730267
137	0xbd824f3e	-0.063627705
138	0xbd699f30	-0.05703658
139	0x3c8ba8a5	0.01704819
140	0xbce7c260	-0.028290927
141	0x3c158042	0.009124817
142	0xbda58a00	-0.08082962
143	0xbd712339	-0.05887148
144	0xbd873008	-0.06600958
145	0xbc886326	-0.01664884
146	0x3d2edfb6	0.042693816
147	0xbd3a4ba0	-0.045482278
148	0xbb5eac33	-0.003397715
149	0xbda3ece1	-0.080041654
150	0xbda6bf0c	-0.08141908
151	0x3b5f3c63	0.0034063093
152	0xbd2119fa	-0.039331414
153	0x3c8fbf17	0.017547173
154	0xbd131b89	-0.03591493
155	0x3cd42532	0.025896642
156	0x3cc14581	0.023592712
157	0xbc527b2b	-0.012846748
158	0xbda4fba6	-0.08055811
159	0xbda12e4d	-0.07870159
160	0xbd63f884	-0.055656925
161	0xbcdb365b	-0.026759317
162	0x3cdf3f36	0.027251821
163	0xbd13be35	-0.036070067
164	0xbd951964	-0.072802335
165	0xbcac6ac6	-0.021047007
166	0xbdb7c086	-0.08972268
167	0x3c8f270f	0.01747468
168	0xbca134c6	-0.019678485
169	0xbd3c5d57	-0.045987453
170	0x3a8ca900	0.0010731518
171	0xbd3444f6	-0.04401108
172	0xb92d9c12	-0.00016556706
173	0xbd378e6a	-0.04481355
174	0x3d5be67f	0.053686615
175	0xbd06a4eb	-0.03287212
176	0xbd9eff72	-0.07763566
177	0x3bb75624	0.0055949856
178	0xbd1230d0	-0.035691082
179	0xbd1ce1f1	-0.038301412
180	0xbc612c17	-0.013743422
181	0xbca88cf7	-0.02057503
182	0xbc955afc	-0.018231861
183	0xbd1bfe6e	-0.03808444
184	0xbdbcb864	-0.09214857
185	0xbd1c2848	-0.038124353
186	0xbdbb7c2b	-0.091545425
187	0x3be43500	0.006964326
188	0xbda16279	-0.0788011
189	0xbda6d7d6	-0.08146636
190	0xbc458163	-0.012054774
191	0xbd95c666	-0.07313232
192	0x3d6f7c18	0.058467954
193	0xbd30774b	-0.043082517
194	0xbca31af0	-0.019910306
195	0xbd774a7b	-0.060373764
196	0x3d08c3a1	0.03338969
197	0xbd208031	-0.039184753
198	0xbd258c91	-0.040417258
199	0xbd3054e3	-0.043049704
200	0xbd30a0b8	-0.043122023
201	0x3cf30821	0.029666962
202	0xbd074853	-0.033027958
203	0x3b94e8b9	0.0045443443
204	0xbc074bef	-0.00825785
205	0x3ce9a48e	0.028520849
206	0x3c96c0f6	0.018402558
207	0xbd10a0c4	-0.035309568
208	0xbdc0369f	-0.09385418
209	0xbb2e7b4e	-0.0026623788
210	0xbd3210da	-0.043473102
211	0x3c5a3243	0.013317647
212	0xbc9d090e	-0.019169357
213	0x3d449ffb	0.04800413
214	0xbcc9586c	-0.024578296
215	0xbd2a08f8	-0.04151246
216	0xbc988226	-0.018616747
217	0x3c4507cf	0.0120257875
218	0x3ba315be	0.004976957
219	0xbd4c8a5d	-0.04993664
220	0xba8a5ff6	-0.0010557163
221	0xbbec3fd9	-0.0072097597
222	0xbd964959	-0.07338209
223	0x3c89e2e6	0.016831826
224	0x3c7219cd	0.014776659
225	0xbcc78b62	-0.024358455
226	0xbceaf3dd	-0.028680736
227	0xbd846424	-0.06464413
228	0xbd1a566b	-0.03768007
229	0x3d8e1f98	0.0693962
230	0x3cb0eac3	0.021596318
231	0x3bf4a515	0.0074659684
232	0xbd60a57d	-0.054845322
233	0x3cf1edd8	0.029532358
234	0xbd8abd39	-0.067743726
235	0xbd977218	-0.073948085
236	0xbd324f00	-0.04353237
237	0xbcedaf07	-0.029014124
238	0xbc9b7ccf	-0.018980412
239	0xbd3c093d	-0.045907248
240	0xbd93cc15	-0.0721666
241	0xbda19b9e	-0.0789101
242	0xbca7df47	-0.02049221
243	0xbd8d5b23	-0.069021486
244	0xbd409f66	-0.047027014
245	0xbdb0d923	-0.086351655
246	0xbd9f1565	-0.077677526
247	0xbd4db396	-0.050220095
248	0x3b22465f	0.0024761183
249	0x3b20ef0c	0.0024556546
250	0xbd92f2a2	-0.07175185
251	0xbd0e51ad	-0.03474586
252	0xbd2f2dbd	-0.04276823
253	0xbdc31e8f	-0.09527313
254	0xbc9fc366	-0.019502353
255	0xbc691485	-0.014226084

backbone.0.bn.running_mean f4 [256]
0	0x3de58d83	0.11208632
1	0xbd700910	-0.058602393
2	0x3e161fc4	0.14660555
3	0xbe6cf0bd	-0.2313871
4	0xbda64b5e	-0.08119844
5	0x3e5eecb8	0.21769989
6	0xbd8cfe96	-0.06884496
7	0x3e0929dc	0.13394874
8	0xbd70d042	-0.05879236
9	0x3e3d1fa5	0.18469103
10	0x3e7eaca1	0.2487054
11	0x3e5014d7	0.2032045
12	0x3cd5d58c	0.026102804
13	0xbaef31c7	-0.0018249088
14	0xbcde5f2c	-0.02714499
15	0x3ea2d080	0.31799698
16	0x3bb9811f	0.0056611444
17	0xbd864978	-0.06556982
18	0xbd31eda5	-0.043439526
19	0xbd23b67a	-0.039968945
20	0x3d7e8b25	0.062144417
21	0xbe46b2ac	-0.19404095
22	0xbe18b98d	-0.14914532
23	0xbda72f2e	-0.08163296
24	0x3df80546	0.12110381
25	0xbde2809e	-0.11059688
26	0x3c84216f	0.016129224
27	0xbdf1dbbf	-0.11809491
28	0x3e66c1d0	0.22534871
29	0xbe2d0457	-0.16896187
30	0xbdd3483b	-0.10316511
31	0xbdc8cda0	-0.09804845
32	0x3cd54c6b	0.026037415
33	0xbdc2d77f	-0.09513759
34	0x3d63e725	0.05564036
35	0xbe167f05	-0.14696892
36	0xbd0d7798	-0.03453788
37	0x3e10dd1b	0.14146845
38	0xbe71032d	-0.23536368
39	0x3e0a5201	0.13507845
40	0x3ea80029	0.32812622
41	0x3d4f2c77	0.050579514
42	0xbde4b412	-0.11167158
43	0xbda672a3	-0.08127334
44	0xbd28057c	-0.041020855
45	0x3dc246fb	0.09486195
46	0xbe9a8f06	-0.30187243
47	0x3e0e9171	0.13922669
48	0x3d9b23dd	0.075752
49	0xbcb9847f	-0.022646187
50	0x3e0ed94c	0.1395008
51	0x3df3a794	0.11897197
52	0x3d143b91	0.03618962
53	0x3dd888aa	0.105729416
54	0xbe28cf93	-0.16485433
55	0x3e5ade88	0.21373951
56	0x3dd39e47	0.103329234
57	0xbd33c570	-0.043889463
58	0x3e2f390c	0.17111605
59	0x3dc25ce2	0.09490372
60	0xbd2ffdde	-0.042966716
61	0x3ebb396b	0.36567244
62	0xbd08df25	-0.033415932
63	0xbbd0b54e	-0.0063692695
64	0x3d26185b	0.04055057
65	0x3e0adf45	0.13561733
66	0xbdaab534	-0.08335343
67	0x3d132b12	0.035929747
68	0x3e521a26	0.20517787
69	0xbe5397d2	-0.20663384
70	0x3e51b872	0.20480517
71	0xbcb68358	-0.022279426
72	0xbcb2d615	-0.021830598
73	0x3db53579	0.0884809
74	0x3da331fc	0.07968518
75	0xbe3ed446	-0.18635663
76	0x3de67ac3	0.11253884
77	0x3dad4cad	0.0846189
78	0xbdeee829	-0.11665375
79	0xbdffff83	-0.12499907
80	0xbe10335d	-0.14082094
81	0x3d7654b1	0.06013936
82	0x3d8bbc2c	0.06823
83	0x3c301b06	0.01074863
84	0xbe4fd3d2	-0.20295647
85	0x3e2ea527	0.17055188
86	0xbadb147f	-0.0016714482
87	0xbd7a45ed	-0.061101843
88	0x3d131b38	0.03591463
89	0x3d9c3cd4	0.076287895
90	0x3dc0fa05	0.094226874
91	0x3e09c42b	0.13453738
92	0xbcdeade0	-0.02718252
93	0x3d529ed5	0.051421005
94	0x3e551794	0.20809776
95	0xbb94d42e	-0.0045418954
96	0x3e063371	0.13105561
97	0xbd208488	-0.03918889
98	0x3e12789d	0.14303823
99	0xbdaadd5e	-0.08343004
100	0xbd4cbbe4	-0.049983874
101	0x3e5c5e22	0.21520284
102	0xbe34c051	-0.17651488
103	0xbc458277	-0.012055031
104	0xbf000765	-0.50011283
105	0xbd85c5d6	-0.06531875
106	0x3de2a43b	0.11066481
107	0x3deeba9b	0.11656686
108	0xbddeb3f1	-0.10874165
109	0xbd0adbce	-0.03390103
110	0x3d0be8d4	0.03415759
111	0xbe38bbc4	-0.18040377
112	0x3dcdb14f	0.100435846
113	0xbe15bd2d	-0.14622946
114	0xbdca189b	-0.09867974
115	0xbe7c58ff	-0.24643324
116	0xbe2e5187	-0.17023288
117	0x3d5b50cf	0.053543862
118	0xbdbda194	-0.09259334
119	0x3cc030f8	0.02346085
120	0x3dda6f98	0.10665816
121	0x3d87f4dc	0.066385
122	0x3e2f61cc	0.1712715
123	0x3c88bf8c	0.0166929
124	0x3da90b72	0.08254136
125	0xbd9f88f8	-0.077897966
126	0xbe67a578	-0.22621715
127	0x3dabe75e	0.08393739
128	0xbcb1228f	-0.021622924
129	0xbcd285e1	-0.025698604
130	0x3e2b346c	0.16719216
131	0xbd896704	-0.06709102
132	0xbb31f8f3	-0.0027156442
133	0x3e9a5df5	0.3014981
134	0x3d4f93b3	0.050677966
135	0x3df575c5	0.119853534
136	0xbd912f7e	-0.070891365
137	0x3db3715d	0.08761857
138	0x3d6e2256	0.058138214
139	0x3c5e4794	0.01356687
140	0xbdb588ef	-0.08864009
141	0x3dc060e7	0.09393483
142	0xbe295b23	-0.16538672
143	0x3dc1353d	0.094339825
144	0x3d94d8a7	0.07267886
145	0x3cabb1bf	0.02095878
146	0xbe535979	-0.206396
147	0xbe594b84	-0.21220213
148	0xbda34bac	-0.07973418
149	0x3d7213e2	0.059100993
150	0xbcd33942	-0.025784139
151	0x3ddbf88a	0.107407644
152	0x3e6cea70	0.23136306
153	0x3e4a7cd5	0.19774182
154	0x3e6642a2	0.22486356
155	0x3d2d19d5	0.042260963
156	0x3c437819	0.011930489
157	0xbe4ae4fa	-0.1981391
158	0xbdca5d02	-0.09881021
159	0x3ed4db3a	0.41573507
160	0xbe22a485	-0.15883072
161	0x3c8b5663	0.017008966
162	0x3d8d1eda	0.0689065
163	0x3d9cf27a	0.07663436
164	0x3e58d27a	0.2117404
165	0x3e0f57e1	0.13998367
166	0x3da47c7f	0.08031558
167	0xbe744911	-0.23855998
168	0xbc163b1b	-0.009169365
169	0x3e441dd5	0.19152005
170	0x3ce97bae	0.028501358
171	0x3dc317d5	0.0952603
172	0x3e095d26	0.1341444
173	0x3dce70f2	0.10080136
174	0x3e507519	0.20357169
175	0x3dda4753	0.10658135
176	0xbe40544d	-0.18782158
177	0x3db2c985	0.08729843
178	0x3e33a4dd	0.17543359
179	0xbd6fddb5	-0.058561046
180	0xbd56855f	-0.052373286
181	0x3e0dd312	0.13850048
182	0xbd6fd429	-0.05855194
183	0x3ba8cffa	0.005151746
184	0xbd824a40	-0.06361818
185	0xbe5db62e	-0.21651527
186	0xbe8e9408	-0.27847314
187	0x3dfc064e	0.1230589
188	0xbe3b7447	-0.18306075
189	0x3de1f160	0.11032367
190	0x3e08acfa	0.13347235
191	0xbe228f12	-0.1587489
192	0xbe4ba4ad	-0.19887038
193	0xbe155891	-0.14584567
194	0x3ceea64d	0.029132033
195	0x3d835e16	0.0641443
196	0xbda6f2d9	-0.08151788
197	0x3cf522a7	0.02992375
198	0xbdf4e085	-0.11956886
199	0x3d548856	0.051887833
200	0xbea40bdf	-0.32040307
201	0x3ddab87c	0.10679719
202	0xbd91705e	-0.071015105
203	0x3da79cf7	0.081842355
204	0x3d66a8b5	0.056313235
205	0x3cb6091c	0.02222114
206	0x3d6d1585	0.05788185
207	0x3d360154	0.04443486
208	0xbdc48726	-0.0959609
209	0x3da0cc2c	0.07851443
210	0xbddfffbd	-0.1093745
211	0x3d75dd9a	0.06002579
212	0x3d558c03	0.05213548
213	0x3cd67470	0.026178569
214	0xbe3e9fc8	-0.18615639
215	0xbe862fbb	-0.2620829
216	0x3e3148ee	0.17312977
217	0xbcdea3f3	-0.027177786
218	0x3db9cb55	0.09071986
219	0x3d894bd6	0.06703918
220	0x3e1baa88	0.15201771
221	0x3d180472	0.037113614
222	0xbd578635	-0.052618224
223	0xbc5f7560	-0.013638824
224	0xbde97b77	-0.11400502
225	0xbd4f8660	-0.05066526
226	0xbd5bc26f	-0.053652223
227	0x3c41a8b6	0.011820009
228	0xbce38929	-0.027775364
229	0x3dd67214	0.104709774
230	0x3e623af4	0.22092801
231	0x3dac28d8	0.08406228
232	0x3e57ca60	0.21073294
233	0x3d17257d	0.036900986
234	0xbd6c39d9	-0.057672355
235	0x3aa33598	0.0012451885
236	0xbde37fd1	-0.111083634
237	0x3e15a796	0.1461471
238	0x3e6b769b	0.22994463
239	0x3e30bfb8	0.17260635
240	0x3cc2fb9b	0.023801615
241	0x3d69d503	0.05708791
242	0x3d853c9a	0.065056995
243	0x3d8c8bba	0.06862588
244	0x3dec9ea3	0.11553695
245	0xbe179b22	-0.14805272
246	0xbdb97b6b	-0.09056743
247	0xbd3609fd	-0.04444312
248	0xbda6e70d	-0.08149538
249	0x3e4de149	0.2010547
250	0xbdb1e68f	-0.08686554
251	0xbe1c7ab5	-0.15281184
252	0x3e66e6ba	0.22548953
253	0x3d024458	0.03180346
254	0x3c73121d	0.0148358615
255	0x3e3a2712	0.18178967

backbone.0.bn.running_var f4 [256]
0	0x3ee02fdf	0.43786523
1	0x3e1793c1	0.14802457
2	0x3e4bdf55	0.19909413
3	0x3fb6fe71	1.4296399
4	0x3e90c59a	0.28275758
5	0x3eef1a28	0.46699643
6	0x3ed97a15	0.42475954
7	0x3ef14eb6	0.47130364
8	0x3d642f53	0.055709194
9	0x3f7dc39d	0.9912661
10	0x3f87c7f7	1.06079
11	0x3e8234dd	0.25430956
12	0x3f371b51	0.71526057
13	0x3eca378b	0.394955
14	0x3f4c2966	0.7975067
15	0x3e8f4ffc	0.2799071
16	0x3e88aae0	0.26692867
17	0x3e54e11e	0.20789
18	0x3f4f75a9	0.8103891
19	0x3f46a154	0.7758992
20	0x3e4245ea	0.18971983
21	0x3e563f35	0.20922549
22	0x3e45504e	0.19268915
23	0x3e9c0f5c	0.30480468
24	0x3e477871	0.19479539
25	0x3e664231	0.22486188
26	0x3ed3d739	0.4137514
27	0x3f9852c2	1.1900256
28	0x3f1ddd7f	0.616661
29	0x3d7016d9	0.05861554
30	0x3eb4536c	0.35219896
31	0x3ef25038	0.47326827
32	0x3ee1ac81	0.44076923
33	0x3e864b79	0.26229456
34	0x3e97e8bd	0.29669753
35	0x3f00d2ff	0.50321954
36	0x3e90c62a	0.28276187
37	0x3f27d13e	0.65553653
38	0x3da4aa11	0.0804025
39	0x3f3dd27e	0.7414931
40	0x3df1ed6e	0.11812864
41	0x3ec8086f	0.39068934
42	0x3e521ff2	0.20519999
43	0x3f1472e4	0.5798781
44	0x3dccfde4	0.10009363
45	0x3f187ce2	0.59565556
46	0x3f7698f3	0.9632713
47	0x3ed7ae95	0.42125383
48	0x3ed1f4ca	0.41007072
49	0x3f938a81	1.1526643
50	0x3d72886a	0.059212126
51	0x3e4043e6	0.18775901
52	0x40016715	2.0219166
53	0x3dfa9cb1	0.12236918
54	0x3e714444	0.23561198
55	0x3e6ace3e	0.22930238
56	0x3f403cdd	0.7509287
57	0x3ec020b8	0.37524962
58	0x3db9d664	0.09074095
59	0x3e8c32a0	0.27382374
60	0x3e977754	0.29583228
61	0x3e80dcb7	0.25168392
62	0x3f0c5723	0.5482046
63	0x3e7ebadb	0.24875967
64	0x3eaeb183	0.34119806
65	0x3e36c03a	0.17846766
66	0x3f3b8575	0.73250514
67	0x3e3f7a61	0.18699028
68	0x3f1ffdf5	0.6249688
69	0x3f4099fc	0.7523496
70	0x3dd6b3b2	0.10483493
71	0x3ebbde43	0.3669301
72	0x3e42733c	0.18989271
73	0x3f20ce0a	0.6281439
74	0x3eb22e08	0.34800744
75	0x3dd78f04	0.10525325
76	0x3eaa87a4	0.3330661
77	0x3f6a0a3c	0.91421866
78	0x3f04b568	0.51839304
79	0x3f01a661	0.506445
80	0x3e8d1997	0.27558586
81	0x3f313157	0.6921591
82	0x3e1fc2bc	0.15601629
83	0x3f12b0f4	0.5730126
84	0x3e84f97a	0.25971586
85	0x3ed7a831	0.42120507
86	0x3e9b976d	0.30388966
87	0x3d0697f4	0.032859758
88	0x3f9979a9	1.1990253
89	0x3e82c35e	0.25539678
90	0x3e0f65ae	0.14003631
91	0x3e865159	0.26233938
92	0x3e2fb58e	0.17159101
93	0x3e8416ac	0.25798547
94	0x3e0218e7	0.12704812
95	0x3d28c61d	0.04120456
96	0x3de1f4c8	0.110330164
97	0x3f133805	0.57507354
98	0x3f5f9c72	0.8734809
99	0x3e1bae8a	0.152033
100	0x3f15a07e	0.58448017
101	0x3e0cb953	0.1374257
102	0x3f2de22a	0.67923224
103	0x3fcb82e0	1.5899315
104	0x3e9e23e6	0.30886763
105	0x3ec6bcde	0.3881597
106	0x3f18ff17	0.59764236
107	0x3eaa6ec1	0.33287624
108	0x3ed0b81c	0.40765464
109	0x3f3d0e46	0.73849905
110	0x3f813ddb	1.0097002
111	0x3d919609	0.07108695
112	0x3fe870f6	1.8159473
113	0x3f35d751	0.7103167
114	0x3ecb5fab	0.39721426
115	0x3f11a822	0.56897175
116	0x3f28fc99	0.66010433
117	0x3ecc97dd	0.39959612
118	0x3e8f3455	0.27969614
119	0x3e8faa7c	0.28059757
120	0x3eabd76e	0.33562797
121	0x3f22d124	0.63600373
122	0x3eef7225	0.46766773
123	0x3e8b9796	0.27264088
124	0x3e10b18d	0.1413023
125	0x3ea8c986	0.3296625
126	0x3f2ede8e	0.6830834
127	0x3ec641e4	0.38722146
128	0x3ef9fd05	0.4882585
129	0x3ebf7e94	0.3740126
130	0x3e3af9a1	0.18259288
131	0x3ed8950c	0.42301214
132	0x3ff05d0f	1.8778399
133	0x3d522e05	0.05131342
134	0x3f1db29e	0.61600673
135	0x3f6d0c7b	0.9259717
136	0x3ef27150	0.47352076
137	0x3e6f6a0d	0.23380299
138	0x3e9467e8	0.28985524
139	0x3f38774f	0.7205705
140	0x3ee8c17d	0.4546012
141	0x3d5b56a0	0.05354941
142	0x3e3b0229	0.18262543
143	0x3f6943c0	0.91119003
144	0x3efb6e4a	0.4910758
145	0x3eb07d80	0.3447075
146	0x3f42574b	0.7591445
147	0x3e896329	0.26833466
148	0x3ea76d4f	0.32700583
149	0x3e42f0d9	0.19037189
150	0x3ed6386e	0.41839927
151	0x3f089362	0.5334989
152	0x3eb27da1	0.34861472
153	0x3ea37c8a	0.31930953
154	0x3fd661c2	1.6748583
155	0x3f0c6274	0.5483773
156	0x3ebe4e5f	0.37169167
157	0x3ed1a36a	0.40944988
158	0x3e64e79e	0.2235398
159	0x3f4d3e0b	0.80172795
160	0x3f5f2f83	0.8718187
161	0x3f956407	1.1671151
162	0x3f327763	0.6971342
163	0x3e5cd4ce	0.21565554
164	0x3ec99d56	0.3937785
165	0x3eafdfd8	0.34350467
166	0x3e4f1c75	0.20225699
167	0x3e58b211	0.21161677
168	0x3ef8cc9d	0.48593608
169	0x3f833d7f	1.0253142
170	0x3e8553ed	0.26040593
171	0x3f977e5c	1.1835437
172	0x3e66ba3b	0.22531979
173	0x3f12f217	0.5740065
174	0x3f0a3bb9	0.5399738
175	0x3ea1a630	0.31572104
176	0x3f3480ce	0.7050904
177	0x3de5270c	0.11189088
178	0x3e092dad	0.1339633
179	0x3f060700	0.5235443
180	0x3e98bba5	0.2983066
181	0x3e270ce8	0.16313517
182	0x3d9e5838	0.0773167
183	0x3eb31f78	0.34984946
184	0x3e1d93cd	0.15388413
185	0x3fbfc8a3	1.4983104
186	0x3dd96355	0.10614649
187	0x3ea9064a	0.3301261
188	0x3f133a4c	0.5751083
189	0x3e3761f6	0.17908463
190	0x3e75d8e1	0.24008514
191	0x3d844c7e	0.06459902
192	0x3f13e427	0.5777001
193	0x3d88ac71	0.066735156
194	0x3e5e7f80	0.21728325
195	0x3ecf7cc9	0.4052489
196	0x3e663108	0.22479641
197	0x3f9be54a	1.2179348
198	0x3f12ee4a	0.5739485
199	0x3e7d98a8	0.24765265
200	0x3efb3e35	0.49070898
201	0x3f11cc87	0.5695271
202	0x3fa5647e	1.2921293
203	0x3e87a497	0.2649276
204	0x3eb1dc3d	0.3473834
205	0x3f18cf43	0.59691256
206	0x3f05b5ef	0.52230734
207	0x3e4c0d30	0.19926906
208	0x3e914213	0.28370723
209	0x3f40e863	0.75354594
210	0x3fa2710d	1.269075
211	0x3ebdb949	0.37055424
212	0x3f047d51	0.5175372
213	0x3e61eb98	0.22062528
214	0x3ea8b631	0.329515
215	0x3e8e8c4a	0.27841407
216	0x3ee5db6f	0.44893977
217	0x3eb45030	0.35217428
218	0x3e854687	0.2603037
219	0x3fbb988e	1.4655931
220	0x3f5a6fa5	0.85326606
221	0x3e292295	0.16517098
222	0x3edc97d4	0.43084586
223	0x3e40c9bb	0.18826954
224	0x3f023abb	0.50870866
225	0x3ea281a4	0.31739533
226	0x3e082894	0.1329673
227	0x3f5a8d04	0.8537142
228	0x3f2ea531	0.6822081
229	0x3dda2d40	0.10653162
230	0x3e2da42a	0.16957155
231	0x3d343272	0.04399342
232	0x3f854630	1.0412045
233	0x3d674388	0.056460887
234	0x3f2f2b7a	0.68425715
235	0x3d826a41	0.063679226
236	0x3f1be930	0.6090269
237	0x3f0b3ff0	0.54394436
238	0x3f617b84	0.88079095
239	0x3fafe08e	1.3740404
240	0x3e1ba838	0.15200889
241	0x3e66689a	0.2250084
242	0x3e582ffc	0.21112055
243	0x3f07ef13	0.53099173
244	0x3ed814d8	0.42203403
245	0x3f517d78	0.81832075
246	0x3e1bad39	0.15202798
247	0x3e77fd68	0.2421776
248	0x3eab8bc2	0.33505064
249	0x3ec7422c	0.38917673
250	0x3ed12123	0.40845594
251	0x3e8258e9	0.25458458
252	0x3ebb83e5	0.36624065
253	0x3e9bf380	0.30459213
254	0x3f0939ae	0.5360364
255	0x3f0e2d8a	0.5553824

backbone.1.fc.weight f4 [128, 256]
0	0x3d0a803e	0.033813708
1	0x3d8e8e09	0.06960685
2	0x3caa19fe	0.020764347
3	0xbd9c7ac1	-0.07640601
4	0xbd2a9c0c	-0.041652724
5	0x3d159428	0.036518246
6	0xbb237e93	-0.002494727
7	0x3d556bbe	0.052104704
8	0x3d96dbff	0.0736618
9	0xbdd8ee1e	-0.10592292
10	0xbb9dd1fa	-0.004816291
11	0xbd0b0aae	-0.03394573
12	0x3d9f4a99	0.077779
13	0x3bf9acf5	0.007619495
14	0x3cfbf2bb	0.030755391
15	0xbdd9560a	-0.10612114
16	0xbd275c3f	-0.040859457
17	0x3d26f782	0.040763386
18	0x3d4c4b95	0.04987677
19	0xbd520446	-0.051273607
20	0xbd3fbae0	-0.046809077
21	0x3d60d936	0.05489465
22	0x3c1cd701	0.009572745
23	0x3e1917df	0.14950512
24	0xbca17e5a	-0.01971357
25	0xbda86fc5	-0.08224443
26	0x3e1cc702	0.1531029
27	0x3b0b39f1	0.0021244253
28	0xbcbc400a	-0.022979755
29	0xbe4a15d3	-0.19734888
30	0x3d92e6df	0.071729414
31	0x3d4b8cfd	0.049695004
32	0xbe29744b	-0.16548268
33	0xbcb04962	-0.021519367
34	0x3e253abd	0.16135688
35	0x3c842ffb	0.01613616
36	0x3da529eb	0.08064636
37	0x3ca09f0c	0.01960709
38	0xbdf9f2af	-0.12204491
39	0xbbc74014	-0.0060806368
40	0x3daea4b6	0.0852751
41	0xbdc865ca	-0.0978504
42	0xbda3c22d	-0.079960205
43	0x3e835176	0.25648087
44	0xbe2cb252	-0.16864899
45	0xbbf4f259	-0.007475179
46	0xbcae4e03	-0.021277433
47	0xbe2b720b	-0.16742723
48	0xbd6ecb5f	-0.05829942
49	0xbd181fb3	-0.037139606
50	0x3dc1ca8c	0.09462461
51	0xbdc1591c	-0.094408244
52	0xbbec81ec	-0.0072176363
53	0xbd8eb6b1	-0.06968439
54	0x3e1f850a	0.15578094
55	0xbdd79e5c	-0.105282515
56	0x3c1c0f7a	0.009525174
57	0xbe3ba968	-0.18326342
58	0xbdf36e98	-0.118863285
59	0xbd103eb0	-0.035216033
60	0xbb4b2fdb	-0.0031003866
61	0x3d7a18a9	0.061058674
62	0x3d9b1838	0.07572979
63	0x3da8ab5c	0.08235809
64	0xbe1b1147	-0.1514331
65	0x3c279010	0.010227218
66	0xbce30966	-0.027714442
67	0x3dcbed0c	0.099573225
68	0x3d859b55	0.06523768
69	0x3ca42550	0.020037323
70	0xbc4e0502	-0.012574436
71	0x3d2d6312	0.04233081
72	0xbe2cedd4	-0.16887599
73	0xbd8c2eb4	-0.068448454
74	0xbdb8da4c	-0.09026012
75	0xbdfac302	-0.12244226
76	0x3dfc8b6c	0.1233128
77	0xbd82925d	-0.06375573
78	0x3d05ef52	0.032698937
79	0xbd9e8d40	-0.07741785
80	0xbd80a586	-0.06281571
81	0xbe43b190	-0.19110703
82	0x3c9a6db7	0.018851144
83	0x3d24ac37	0.0402033
84	0x3d58ba19	0.05291185
85	0xbb8c3e7e	-0.0042799106
86	0xbdd08f21	-0.1018355
87	0x3c734509	0.014848002
88	0x3d3330df	0.04374778
89	0x3dfca931	0.12336958
90	0x3d53370b	0.051566165
91	0x3d3312b7	0.04371902
92	0xbc2fff33	-0.010741997
93	0x3e1a8772	0.15090731
94	0x3cd624d7	0.026140613
95	0xbd9db3c5	-0.07700304
96	0x3d948019	0.07250995
97	0xbe02fd8c	-0.12792033
98	0xbdfc0861	-0.12306286
99	0x3b0caab2	0.0021464047
100	0x3d71f8fc	0.05907534
101	0x3e20deed	0.1571004
102	0xbe09c58f	-0.13454269
103	0x3d42f69e	0.047598474
104	0xbe28a214	-0.16468078
105	0x3c27d3ae	0.010243339
106	0xbca3652e	-0.019945707
107	0xbce6b1c9	-0.028160946
108	0x3d6b0569	0.057378206
109	0xbd92a485	-0.07160286
110	0x3ca05e83	0.019576317
111	0xbb2a0cbe	-0.0025947536
112	0xbd827f2b	-0.063719116
113	0xbdb2ab33	-0.0872406
114	0xbd9fca0c	-0.07802209
115	0x3d042744	0.03226401
116	0xbc8bce2b	-0.017066082
117	0xbdd11a2a	-0.102100685
118	0xbde6eefc	-0.112760514
119	0x3dfea944	0.124346286
120	0xbcf24879	-0.029575573
121	0xbe28a045	-0.16467388
122	0xbe24af48	-0.1608249
123	0x3d8c4318	0.068487346
124	0xbd02ae48	-0.03190449
125	0xbe1308d1	-0.14358832
126	0xbd85dfca	-0.06536825
127	0x3d1b8d7e	0.037976734
128	0x3d511399	0.05104408
129	0x3c7df311	0.015499846
130	0x3c1c087d	0.009523508
131	0xbd55b66b	-0.05217592
132	0x3da6c50e	0.08143054
133	0xbd5ef756	-0.054435097
134	0xbc7556b2	-0.014974283
135	0x3d6e7570	0.058217466
136	0xbdbf01a1	-0.093264826
137	0x3d81a310	0.0632993
138	0xbd839c4c	-0.06426296
139	0x3db0d887	0.08635049
140	0x3c37ad38	0.011210732
141	0x3d86d63b	0.0658383
142	0xbdafa481	-0.085762985
143	0xbd1cec1a	-0.0383111
144	0xbcff6d55	-0.031180063
145	0xbdf733ae	-0.12070404
146	0xbcc75527	-0.024332596
147	0x3a79ae89	0.0009524604
148	0xbda86f77	-0.08224385
149	0x3d773ac2	0.06035877
150	0x3de37fec	0.111083835
151	0x3d6ec541	0.058293585
152	0x3cfd6a23	0.030934399
153	0x3db840f5	0.089967646
154	0xbd1bb9be	-0.038018934
155	0xbda7a029	-0.08184845
156	0x3d95845f	0.073006384
157	0x3d737e6d	0.05944674
158	0xbe1615f6	-0.14656815
159	0xbdc77c59	-0.09740514
160	0x3d5462d5	0.051852066
161	0xbdbeb9e7	-0.09312802
162	0xbe30447a	-0.17213622
163	0x3dba654a	0.091013506
164	0xbd8de471	-0.06928337
165	0xbddb85bd	-0.10718868
166	0xbdbb24e1	-0.091378935
167	0x3ba3e430	0.0050015673
168	0xbdc62912	-0.09675802
169	0x3b0c8186	0.0021439507
170	0xbd642de2	-0.05570782
171	0xbd622e54	-0.055219963
172	0x3e0351f7	0.12824236
173	0x3d2166f2	0.039404817
174	0xbcb01f54	-0.021499313
175	0xbe1e4744	-0.15456873
176	0x3c8d2049	0.017227309
177	0xbe12cb71	-0.14335419
178	0xbdb0629f	-0.086125605
179	0xbc917f52	-0.017760906
180	0x3cb16312	0.021653686
181	0xbde1cd43	-0.11025479
182	0x3e084b71	0.13310029
183	0x3ba349f3	0.0049831807
184	0xbdc4863e	-0.09595917
185	0x3d7c160a	0.061544456
186	0x3da1127a	0.07864852
187	0xbe8383e3	-0.2568656
188	0x3e27aebc	0.1637525
189	0x3c99ccdf	0.018774448
190	0x3c29053c	0.010316189
191	0xbd15fb84	-0.036616817
192	0xbd7cd70f	-0.061728533
193	0x3d3199dc	0.043359622
194	0xbd934dae	-0.071925506
195	0x3d6fa959	0.058511112
196	0x3dbb5600	0.091472626
197	0x3dc37cb0	0.09545267
198	0x3d06bbfd	0.032894123
199	0x3da43e43	0.08019688
200	0xbd37f7b1	-0.04491395
201	0x3da0c830	0.07850683
202	0x3deec95d	0.11659501
203	0xbc1e495e	-0.009661047
204	0xbd4ee357	-0.050509777
205	0x3e09b7ad	0.13448973
206	0xbd254562	-0.04034937
207	0xbdab0928	-0.08351356
208	0x3e4c448c	0.19948024
209	0xbdaba75c	-0.08381531
210	0xbdab078f	-0.08351051
211	0xbe093707	-0.13399898
212	0xbc8ac907	-0.01694156
213	0xbde94c12	-0.113914624
214	0x3de247bf	0.11048841
215	0xbca6c6bd	-0.020358438
216	0xbe3e31d0	-0.1857369
217	0x3c9f11bc	0.019417636
218	0xbdef7062	-0.11691357
219	0x3d251cd5	0.0403107
220	0x3c8b2ec4	0.016990073
221	0xbcf3e3f2	-0.029771779
222	0xbdad0f0a	-0.08450134
223	0xbde6c168	-0.11267358
224	0x3dcfcff8	0.10147089
225	0x3dbd1419	0.09232349
226	0x3b474a74	0.0030409368
227	0xbd9d33e9	-0.07675917
228	0xbc7df731	-0.01550083
229	0x3e2e111f	0.16998719
230	0xbd311444	-0.043232217
231	0x3de98138	0.114016
232	0xbdf12ade	-0.117757544
233	0xbd99e9ab	-0.07515272
234	0xbd4a6dc8	-0.0494211
235	0xbd70feff	-0.058836933
236	0x3cfb1921	0.03065163
237	0xbd2371bd	-0.03990339
238	0xbb59839e	-0.0033190022
239	0xbd0e6a1f	-0.034769174
240	0x3dc05d3b	0.09392782
241	0x3d4252c6	0.04744222
242	0xbe1a75a9	-0.15083946
243	0xbd130871	-0.035896722
244	0xbc862a7f	-0.016377686
245	0x3dd22164	0.10260275
246	0x3d624779	0.055243943
247	0xbd74921c	-0.059709653
248	0xbde337ad	-0.11094604
249	0xbd4cc1dd	-0.04998957
250	0xbd67a899	-0.05655727
251	0x3c68400a	0.014175424
252	0x3b80b78d	0.003928131
253	0xbdd3d26b	-0.103428684
254	0x3d3b3370	0.04570335
255	0xbe1d7a95	-0.15378793
